saved_models/checkpoint.pt (torch, 70351 bytes, 4 tensors)

layer1.weight f4 [128, 126]
-0.081583455 -0.045767635 -0.042718846 -0.042517994 -0.01003666 -0.035695825 0.042273745 0.08169607
0.033836268 -0.10192492 -0.004172397 0.051538303 0.1337485 0.11881639 0.028321583 -0.005484891
0.039411135 -0.096888795 -0.069936186 0.07674121 -0.033176273 0.092343315 -0.016576573 -0.12592171
0.07736062 -0.07438509 -0.10245164 0.04948454 0.007189054 0.149407 0.020113785 0.12863107
0.053520568 0.089854956 0.0384069 -0.035366997 -0.01069519 -0.055002995 -0.01533291 0.00063207577
0.058128398 0.033794776 -0.0588254 -0.120593645 0.04312801 0.10439566 -0.23659346 0.0015851675
-0.005811454 -0.012934287 0.3003791 0.032569584 0.051781833 0.059864916 0.16955018 -0.04409261
-0.066230774 0.040762886 0.013161844 -0.01463376 -0.039599195 0.08220906 0.06169114 0.07535085
-0.09721718 -0.022282872 0.10451096 -0.08669649 -0.041137293 -0.058149762 0.08788629 0.16386907
0.0057076244 0.027740378 -0.06242366 -0.05099412 0.09138832 0.011931835 0.0033459007 -0.038057663
-0.12176259 -0.066694476 -0.047392752 -0.037369214 -0.05736865 -0.10611706 0.08777499 0.17350167
-0.24934122 -0.09364469 -0.018698692 0.2755029 -0.03747554 -0.100203626 0.004688762 -0.017279314
-0.012655021 -0.0099249855 -0.0010936859 -0.06086443 -0.17254496 0.076019175 0.009229173 -0.014595014
0.029871639 0.010719013 -0.11175977 0.09802351 0.49260592 -0.089763544 -0.020015845 -0.012193342
0.18944341 0.09209821 -0.07783884 0.162702 0.004148086 0.10765245 -0.07946344 -0.06291176
-0.0810255 0.009157845 0.06471476 0.02320464 -0.018264605 0.038609073 0.00542507 -0.07472091
-0.07726491 0.054464776 -0.030510295 -0.06461285 -0.07210045 -0.04269461 -0.09129218 -0.11040691
0.056681953 -0.07899041 0.048029516 -0.10952858 0.016406067 0.038366735 -0.08577503 0.08264582
-0.0030038585 -0.025928812 -0.019242221 -0.02547322 -0.066866525 0.05253736 -0.052202538 -0.014799003
0.10776427 0.045173023 -0.053844567 -0.103549816 -0.064605474 -0.12335873 0.14375691 0.016122766
0.0576355 0.1392292 0.07286721 0.08557452 0.031489577 -0.04146388 -0.046806466 -0.072843835
0.036898848 -0.08771752 -0.06293414 -0.019084485 0.13604943 0.048103575 0.102079816 -0.08180571
-0.19731988 -0.08811446 0.11698832 -0.06605573 -0.06451643 0.1366129 0.0062917434 -0.0842299
0.029657874 0.034675967 0.06933108 -0.031062197 -0.0002133005 -0.019712405 0.009574439 0.04159417
-0.08967564 0.0151859075 0.034141183 0.0056221257 -0.09926805 0.06855139 -0.0764582 -0.08294676
0.06450124 -0.10696375 -0.12238643 0.047787514 -0.10037704 -0.061667815 -0.07128652 0.016319223
-0.027654694 -0.082425654 -0.06294722 0.0065465006 -0.073714755 -0.1292261 0.20303318 0.009275842
-0.042916432 -0.10829336 0.20499773 0.045423552 0.020855911 0.03789698 -0.0121916495 0.0439194
0.14349777 0.035110332 0.010531537 -0.0773141 0.026452994 0.028062152 -0.08380818 -0.10342048
0.012450394 -0.017911576 -0.05041083 -0.013343022 -0.03997416 -0.12709437 0.13071749 -0.034583207
-0.06586325 -0.1475781 0.15205985 -0.1789231 0.18177646 0.06089887 -0.24057712 0.16229908
0.07762356 -0.04352914 -0.0010176975 0.103361435 0.10418854 0.10071834 0.068386964 0.002918335
00000000: 3a15 a7bd d876 3bbd f5f9 2ebd 5927 2ebd
00000010: ce70 24bc c935 12bd 3c27 2d3d 4550 a73d
00000020: e697 0a3d 03be d0bd 9ab8 88bb d419 533d
00000030: 5ef5 083e 0256 f33d aa02 e83c 9aba b3bb
00000040: 926d 213d a26d c6bd b43a 8fbd 7f2a 9d3d
00000050: d8e3 07bd 7e1e bd3d 98cb 87bc 9ff1 00be
00000060: 3f6f 9e3d 3657 98bd 2ad2 d1bd 4db0 4a3d
00000070: 2892 eb3b 26fe 183e aac5 a43c ddb7 033e
00000080: 6238 5b3d e005 b83d 8e50 1d3d fcdc 10bd
00000090: e13a 2fbc d24a 61bd e336 7bbc e3b1 253a
000000a0: 0b18 6e3d 646c 0a3d e7f2 70bd cdf9 f6bd
000000b0: ffa6 303d 64cd d53d 8e45 72be 65c5 cf3a
000000c0: 026e bebb 55ea 53bc 4acb 993e af67 053d
000000d0: 3019 543d ea34 753d 909e 2d3e 749a 34bd
000000e0: 00a4 87bd fcf6 263d c6a4 573c 70c2 6fbc
000000f0: c432 22bd 395d a83d d9af 7c3d 8c51 9a3d
00000100: cd19 c7bd 928a b6bc d809 d63d ee8d b1bd
00000110: 947f 28bd 722e 6ebd bafd b33d 4bcd 273e
00000120: 0607 bb3b ca3f e33c f4af 7fbd 36df 50bd
00000130: cd29 bb3d be7d 433c e646 5b3b 5ae2 1bbd
00000140: aa5e f9bd 1d97 88bd e71e 42bd 7610 19bd
00000150: 64fb 6abd e753 d9bd 60c3 b33d 6caa 313e
00000160: 4e53 7fbe cac8 bfbd 002e 99bc b70e 8d3e
00000170: f47f 19bd 8f37 cdbd 30a4 993b 598d 8dbc
00000180: 0157 4fbc 689c 22bc 025a 8fba fb4c 79bd
00000190: a0af 30be f1af 9b3d f535 173c ed1f 6fbc
000001a0: 5eb5 f43c cd9e 2f3c 4ee2 e4bd 8dc0 c83d
000001b0: d836 fc3e f3d5 b7bd 45f8 a3bc 95c6 47bc
000001c0: 74fd 413e fc9d bc3d f869 9fbd 5a9b 263e
000001d0: abec 873b e378 dc3d babd a2bd e1d7 80bd
000001e0: b3f0 a5bd c90a 163c 2c89 843d a817 be3c
000001f0: a79f 95bc 8c24 1e3d c9c4 b13b 4707 99bd
00000200: 113d 9ebd 7516 5f3d baf0 f9bc be53 84bd
00000210: 67a9 93bd 8be0 2ebd 65f7 babd 051d e2bd
00000220: 562b 683d b9c5 a1bd 99ba 443d 8550 e0bd
00000230: 0466 863c 7026 1d3d d2aa afbd 3642 a93d
00000240: 62dc 44bb a968 d4bc dda1 9dbc 37ad d0bc
00000250: 51f1 88bd 6a31 573d 54d2 55bd 8477 72bc
00000260: 83b3 dc3d 5907 393d 1f8c 5cbd ed11 d4bd
00000270: e04f 84bd 80a3 fcbd 0335 133e e413 843c
00000280: 3413 6c3d 1992 0e3e 673b 953d b241 af3d
00000290: 37fb 003d 08d6 29bd 23b8 3fbd 262f 95bd
000002a0: 3f23 173d 3ea5 b3bd 9de3 80bd 1157 9cbc
000002b0: 8b50 0b3e 4108 453d 390f d13d c189 a7bd
000002c0: 390e 4abe 5b75 b4bd 9397 ef3d 3a48 87bd
000002d0: 3121 84bd 41e4 0b3e f82a ce3b ba80 acbd
000002e0: 12f5 f23c 6308 0e3d 74fd 8d3d 2676 febc
000002f0: 6ba9 5fb9 e97b a1bc 1cde 1c3c a65e 2a3d
00000300: dda7 b7bd 50ce 783c a0d7 0b3d cf39 b83b
00000310: 0c4d cbbd ac64 8c3d 1e96 9cbd fedf a9bd
00000320: 3a19 843d d00f dbbd bda5 fabd d7bc 433d
00000330: 7a92 cdbd 6497 7cbd abfe 91bd e4af 853c
00000340: 198c e2bc c8ce a8bd 79ea 80bd 0784 d63b
00000350: c3f7 96bd d953 04be eee7 4f3e b4f9 173c
00000360: 24c9 2fbd e9c8 ddbd edea 513e 0c0e 3a3d
00000370: 04da aa3c dd39 1b3d 7cbf 47bc d4e4 333d
00000380: 14f1 123e dacf 0f3d 788c 2c3c db56 9ebd
00000390: f3b3 d83c 99e2 e53c a0a3 abbd 1ece d3bd
000003a0: bdfc 4b3c 4cbb 92bc 967b 4ebd b19c 5abc
000003b0: f2bb 23bd 0725 02be ceda 053e 1fa7 0dbd
000003c0: 50e3 86bd b71e 17be 94b5 1b3e 9e37 37be
000003d0: 9c23 3a3e 1871 793d d959 76be bb31 263e
000003e0: 1af9 9e3d 9d4b 32bd 4364 85ba 29af d33d
000003f0: cd60 d53d 6b45 ce3d 770e 8c3d 8941 3f3b

layer1.bias f4 [128]
-0.04312067 0.03828351 -0.028354062 0.033586647 0.1106218 0.07731345 0.005092273 0.058690526
0.037040852 -0.019050047 -0.094101384 -0.0014415067 0.16009702 0.096949175 -0.07791142 0.15895617
0.050327662 0.04867551 -0.01939784 -0.0805918 -0.0977724 -0.05659485 0.13335152 0.06862012
-0.03031657 0.049744476 0.08004941 -0.025698721 0.12345309 0.037962195 0.14688271 0.083756045
0.007845447 0.02677231 -0.07698015 -0.09922264 0.020077325 0.07736046 0.07351693 0.011635728
0.075553454 0.08657506 0.008654481 0.050684128 -0.07973458 0.099786595 0.023854665 0.08138096
-0.01579259 -0.019707123 0.065203175 0.06683333 0.054680184 0.029653704 -0.053123448 -0.055567697
-0.033766437 -0.030637303 -0.020510906 0.08225888 0.029052095 0.092882246 0.133688 0.05860202
-0.045194574 -0.100046806 0.117808565 0.06350255 0.08609627 0.08881957 0.026999617 0.075246245
-0.050612852 0.056248643 -0.001723507 0.007474773 0.07046337 0.009117253 0.123463355 0.03759262
-0.046826113 0.009597137 -0.006193952 -0.06852988 0.01988788 0.058436874 -0.008069399 0.026791446
0.07827645 -0.016005756 0.0121442955 0.08459057 0.0714671 -0.0714769 -0.03996556 0.10284998
-0.032180235 0.15503839 0.04475203 0.003456689 0.03732812 -0.051884174 0.022367356 0.041887037
0.05359366 -0.0065171737 0.15334141 -0.034162097 -0.006470675 0.051893584 0.06592252 -0.043922734
0.026978992 0.08585162 -0.006616897 0.009661238 -0.077588834 -0.040593185 -0.061179385 0.078789994
-0.0185376 0.008696103 -0.041715693 0.1110617 0.031912137 0.0423634 0.031418025 0.11754145
00000000: 4d9f 30bd 2bcf 1c3d c746 e8bc 2792 093d
00000010: af8d e23d 8456 9e3d 15dd a63b 7a65 703d
00000020: 26b8 173d d80e 9cbc 3ab8 c0bd f0f0 bcba
00000030: 79f0 233e 4a8d c63d 0690 9fbd 68c5 223e
00000040: 6124 4e3d f95f 473d 38e8 9ebc 500d a5bd
00000050: e53c c8bd 00d0 67bd 4d8d 083e b588 8c3d
00000060: 755a f8bc ddc0 4b3d f2f0 a33d 2086 d2bc
00000070: f9d4 fc3d 3f7e 1b3d 6c68 163e 4a88 ab3d
00000080: 318a 003c 9a51 db3c c5a7 9dbd 3d35 cbbd
00000090: 3479 a43c 296f 9e3d 0b90 963d c8a3 3e3c
000000a0: c5bb 9a3d 444e b13d 86cb 0d3c 299a 4f3d
000000b0: e24b a3bd ea5c cc3d dc6a c33c 10ab a63d
000000c0: 765f 81bc d570 a1bc 3e89 853d eadf 883d
000000d0: 54f8 5f3d 53ec f23c f997 59bd f49a 63bd
000000e0: ad4e 0abd 15fb fabc 7d06 a8bc 5877 a83d
000000f0: a9fe ed3c 0c39 be3d 82e5 083e ac08 703d
00000100: f21d 39bd 57e5 ccbd 9e45 f13d a00d 823d
00000110: 3e53 b03d 09e7 b53d 4d2e dd3c b41a 9a3d
00000120: 6c4f 4fbd fa64 663d 4ce7 e1ba f1ee f43b
00000130: 194f 903d 8860 153c 5bda fc3d b8fa 193d
00000140: bdcc 3fbd 4f3d 1d3c a3f6 cabb 6559 8cbd
00000150: e8eb a23c 815b 6f3d 8335 04bc bc79 db3c
00000160: 674f a03d 811e 83bc def8 463c d23d ad3d
00000170: 585d 923d 7b62 92bd edb2 23bd 03a3 d23d
00000180: 6ccf 03bd 62c2 1e3e e84d 373d 9e89 623b
00000190: 5fe5 183d 8084 54bd bf3b b73c be91 2b3d
000001a0: 0785 5b3d 048e d5bb 8805 1d3e 8eed 0bbd
000001b0: f507 d4bb 5e8e 543d 6302 873d 53e8 33bd
000001c0: 0c03 dd3c f9d2 af3d 8ed2 d8bb 2b4a 1e3c
000001d0: e5e6 9ebd 0a45 26bd 3c97 7abd a65c a13d
000001e0: 2adc 97bc 197a 0e3c 13de 2abd 5174 e33d
000001f0: 4db6 023d 3f85 2d3d 30b0 003d 92b9 f03d

layer2.weight f4 [7, 128]
0.030137394 -0.3097877 -0.15277714 -0.09090079 -0.08967956 -0.01029448 -0.12429926 -0.12645222
-0.22966623 -0.11476207 -0.021267276 0.061793666 -0.12946235 -0.11555604 -0.0731822 -0.1316742
-0.017915193 -0.09739898 -0.16445081 -0.33918577 -0.065620646 -0.052792564 -0.14823902 -0.042866673
-0.051600836 -0.18244147 -0.13922736 -0.07565794 -0.074296854 0.0027523933 -0.06815998 -0.16726887
-0.30596933 -0.024659395 -0.07751022 -0.061692756 -0.27353007 -0.0617219 -0.107247286 0.06222823
-0.12681101 0.021124378 0.024788989 -0.1992683 0.010547186 -0.2553689 -0.018778974 -0.06523921
-0.037194204 -0.040418517 -0.14658278 -0.068173066 -0.08155018 -0.086249255 -0.16497852 -0.266583
-0.307039 -0.08723082 -0.120925166 -0.0128277205 -0.052328028 -0.1798022 -0.06459595 -0.25461113
-0.27439803 0.07142578 -0.03895397 -0.16905104 -0.0059902756 -0.042174198 -0.102430545 0.011490287
-0.05010878 0.013186362 -0.122004084 -0.062725514 -0.1630757 0.058964834 -0.07969803 0.066083305
-0.08308261 -0.16188222 -0.08623175 -0.13604935 -0.16799502 -0.07483224 -0.18521932 -0.035194907
-0.089620285 -0.14573939 -0.07605003 -0.10189879 -0.026088081 -0.09592839 -0.100027345 0.008041219
0.060764115 -0.1141227 0.0033244905 -0.09610464 -0.13331641 -0.19767775 -0.11561668 -0.18465617
-0.35345852 -0.05698267 -0.17192538 -0.040528204 -0.12269797 -0.1561077 -0.0005262297 0.048444133
-0.058577172 -0.032537915 -0.08517839 -0.1532524 -0.113556795 -0.28952223 -0.12878045 -0.04585482
-0.20021531 0.11677669 0.03280151 -0.026852023 -0.09653138 -0.07587294 -0.015954338 -0.11998963
0.2687621 -0.021839876 -0.10785948 0.004123581 0.0028702412 0.013144166 -0.22795737 0.16146007
-0.08071203 0.031631045 -0.08208794 -0.0678353 -0.14890316 -0.0158808 0.2506377 -0.19825435
-0.052817836 -0.12676485 0.07462808 0.10456638 0.08495522 0.27638462 -0.024975657 0.054282747
-0.1432399 -0.023312042 -0.1098975 0.07542355 -0.20537345 -0.19623454 -0.21291938 0.014104314
-0.17503549 0.06461883 0.010482248 -0.0059744148 -0.24321696 -0.19769299 -0.1594754 -0.20090997
-0.28188893 0.1368172 -0.19999096 0.21292967 0.07243814 -0.14834341 -0.24438651 -0.0060839998
0.13941857 0.07714916 0.07713747 -0.08079897 0.14043005 -0.12957582 -0.10484676 0.20441161
0.055198986 0.14524882 0.029884843 0.05915352 0.12119367 0.011121374 -0.02836737 0.2596668
0.086008005 -0.03329933 -0.20471936 -0.21440917 -0.11543734 0.12181003 -0.16844165 -0.20175321
-0.2947411 -0.34043944 -0.1430385 -0.179526 0.094369315 0.044947226 -0.010441271 0.007981986
0.07168766 -0.049333394 0.2479792 0.17246307 0.13344398 -0.0019599593 -0.011790668 0.08983
-0.25381616 0.1787684 -0.0025709034 -0.25282604 0.051258586 -0.17028193 0.18300003 0.22954288
0.08965258 -0.13118717 -0.32221898 0.09022955 0.2768478 0.06237198 -0.100947686 0.08508815
0.28781766 0.09888492 -0.16234729 0.11104677 -0.23604716 -0.10217717 -0.27372932 -0.18492909
0.11529531 0.13939744 0.0360212 0.015345529 0.04049957 -0.06115078 0.08054586 0.1599096
0.045783035 -0.0530653 0.04935175 -0.05662039 -0.13432896 0.28006175 0.046152893 -0.19968966
00000000: b2e2 f63c 7e9c 9ebe 9c71 1cbe 322a babd
00000010: eba9 b7bd 2eaa 28bc 9c90 febd b17c 01be
00000020: a02d 6bbe 6008 ebbd b638 aebc 5b1b 7d3d
00000030: c791 04be a5a8 ecbd 8de0 95bd 9ad5 06be
00000040: e2c2 92bc 1e79 c7bd cb65 28be c2a9 adbe
00000050: 1e64 86bd 043d 58bd f8cb 17be f794 2fbd
00000060: 665b 53bd f0d1 3abe 9e91 0ebe 8df2 9abd
00000070: f328 98bd 7f61 343b 7697 8bbd 8848 2bbe
00000080: 03a8 9cbe 8002 cabc aebd 9ebd 8bb1 7cbd
00000090: 220c 8cbe 1ad0 7cbd 77a4 dbbd 07e3 7e3d
000000a0: bfda 01be 080d ad3c 4712 cb3c fd0c 4cbe
000000b0: 1bce 2c3c b6bf 82be 5dd6 99bc 239c 85bd
000000c0: f358 18bd e38d 25bd cc19 16be 529e 8bbd
000000d0: c803 a7bd 73a3 b0bd 21f0 28be 917d 88be
000000e0: 3734 9dbe 12a6 b2bd 9da7 f7bd 5c2b 52bc
000000f0: ea55 56bd 111e 38be e24a 84bd 645c 82be
00000100: e67d 8cbe ae47 923d 338e 1fbd b71b 2dbe
00000110: 134a c4bb dabe 2cbd 1bc7 d1bd c241 3c3c
00000120: dd3e 4dbd 9c0b 583c 47dd f9bd 3c76 80bd
00000130: 51fd 26be 1c85 713d b938 a3bd af56 873d
00000140: 3727 aabd 74c4 25be 469a b0bd 8550 0bbe
00000150: e306 2cbe a541 99bd 22aa 3dbe 8928 10bd
00000160: d78a b7bd b53c 15be 1ec0 9bbd 50b0 d0bd
00000170: acb6 d5bc 1b76 c4bd 23db ccbd 51bf 033c
00000180: cbe3 783d 2ab9 e9bd b2df 593b 82d2 c4bd
00000190: 1984 08be 096c 4abe 70c8 ecbd 8216 3dbe
000001a0: 84f8 b4be a966 69bd 350d 30be e700 26bd
000001b0: 1349 fbbd b2da 1fbe adf2 09ba 5b6d 463d
000001c0: 9eee 6fbd 7a46 05bd 0272 aebd 32ee 1cbe
000001d0: 7790 e8bd 423c 94be 06df 03be 44d2 3bbd
000001e0: 3e05 4dbe 9e28 ef3d e05a 063d c6f8 dbbc
000001f0: 3fb2 c5bd 4663 9bbd acb2 82bc 20bd f5bd
00000200: 309b 893e 8ae9 b2bc 6ee5 dcbd 1b1f 873b
00000210: a81a 3c3b a15a 573c a86d 69be ca55 253e
00000220: 594c a5bd 8e8f 013d b91d a8bd 3ced 8abd
00000230: 127a 18be 7418 82bc 9653 803e 3003 4bbe
00000240: 8457 58bd a5ce 01be 9bd6 983d e626 d63d
00000250: 01fd ad3d 4982 8d3e c099 ccbc 9657 5e3d
00000260: 7bad 12be e5f8 bebc f111 e1bd aa77 9a3d
00000270: 6b4d 52be b5f1 48be 8a07 5abe c815 673c
00000280: 813c 33be e156 843d bcbd 2b3c 06c5 c3bb
00000290: de0d 79be 0870 4abe 854d 23be 58bb 4dbe
000002a0: bf53 90be cf19 0c3e 6eca 4cbe 3c0a 5a3e
000002b0: 735a 943d 56e7 17be 7540 7abe 4a5c c7bb
000002c0: bec3 0e3e 6100 9e3d 40fa 9d3d ee79 a5bd
000002d0: e5cc 0f3e 86af 04be e6b9 d6bd 4751 513e
000002e0: 5518 623d 1bbc 143e 0fd1 f43c f64a 723d
000002f0: 6334 f83d 6c36 363c b062 e8bc 0cf3 843e
00000300: f724 b03d e164 08bd f4a1 51be 148e 5bbe
00000310: 6a6a ecbd 8977 f93d f87b 2cbe 6598 4ebe
00000320: 4ee8 96be 144e aebe af78 12be aad5 37be
00000330: b344 c13d 951a 383d dd11 2bbc e0c6 023c
00000340: fbd0 923d d011 4abd 42ee 7d3e 299a 303e
00000350: 8aa5 083e a972 00bb a52d 41bc cbf8 b73d
00000360: 31f4 81be 100f 373e 9a7c 28bb 6a72 81be
00000370: 86f4 513d 635e 2ebe 5c64 3b3e 4a0d 6b3e
00000380: c69b b73d ee55 06be e3f9 a4be 45ca b83d
00000390: ffbe 8d3e c379 7f3d a9bd cebd b242 ae3d
000003a0: d65c 933e 2d84 ca3d 5e3e 26be 7d6c e33d
000003b0: 59b6 71be 4442 d1bd 4026 8cbe 0d5e 3dbe
000003c0: f31f ec3d 34be 0e3e f78a 133d d06b 7b3c
000003d0: e1e2 253d 3e79 7abd 3af5 a43d 58bf 233e
000003e0: fe86 3b3d 005b 59bd 1025 4a3d c8ea 67bd
000003f0: 888d 09be 4164 8f3e d10a 3d3d 727b 4cbe

layer2.bias f4 [7]
-0.048786197 0.04613288 -0.05781517 0.046860814 0.040337924 -0.0655196 -0.082382284
00000000: 09d4 47bd d5f5 3c3d 9acf 6cbd 20f1 3f3d
00000010: 6139 253d 242f 86bd 0bb8 a8bd
