saved_models/checkpoint.pt (torch, 70355 bytes, 4 tensors)

layer1.weight f4 [128, 126]
-0.082289115 -0.045767635 -0.042718846 -0.043223668 -0.01003666 -0.035695825 0.041542854 0.0807552
0.035955116 -0.09833644 -0.0047900965 0.050492864 0.1387991 0.11848136 0.025430793 -0.006217601
0.039909225 -0.09639944 -0.07061419 0.075623065 -0.03385449 0.091637656 -0.016576573 -0.12592171
0.076652855 -0.07438509 -0.10219851 0.04842728 0.010112757 0.15042591 0.014921655 0.12541391
0.056551673 0.08304552 0.04011417 -0.035632327 -0.01135844 -0.055037614 -0.016435852 1.8901837e-05
0.056762237 0.033016887 -0.059531074 -0.120593645 0.04312801 0.1036656 -0.23644033 0.0026588468
-0.0075031226 -0.014595818 0.3068914 0.012309211 0.05028109 0.06303249 0.16289489 -0.044334576
-0.06463901 0.04017962 0.012408048 -0.015174124 -0.040104154 0.08098946 0.060265914 0.07464519
-0.09721718 -0.022282872 0.10173995 -0.07823824 -0.029839627 -0.062763065 0.09244887 0.17387562
0.0022013714 0.030833218 -0.06542676 -0.04774745 0.09159675 0.01043206 0.003189914 -0.03900132
-0.123751245 -0.06904791 -0.044458188 -0.03379926 -0.05807549 -0.10611706 0.088035144 0.16868825
-0.24029036 -0.088714115 -0.023509718 0.28078097 -0.03299611 -0.12303614 0.0045394106 -0.017209895
-0.010768419 -0.00865001 -0.003296834 -0.06335441 -0.16833976 0.07667371 0.0050870734 -0.008444228
0.03216292 0.01001267 -0.1119873 0.09768333 0.4927501 -0.0927997 -0.018327992 -0.013700138
0.18874453 0.09397935 -0.11381568 0.16316709 0.0041042157 0.10668081 -0.08013225 -0.06331041
-0.07651035 0.005848317 0.0638741 0.022586513 -0.015287032 0.036155008 0.009403582 -0.07472091
-0.07726491 0.05844323 -0.030510295 -0.06461285 -0.068140656 -0.04381148 -0.089809276 -0.11056384
0.06060179 -0.07773123 0.05085867 -0.10893882 0.020162987 0.042344455 -0.08536997 0.08267763
0.0010061305 -0.025729602 -0.019796468 -0.021494778 -0.066866525 0.05253736 -0.048226167 -0.014799003
0.10801738 0.04935684 -0.05512042 -0.10344682 -0.064605474 -0.12376821 0.14921957 0.015183986
0.061127372 0.1412398 0.07677542 0.0861515 0.0338494 -0.03752761 -0.0460777 -0.07215842
0.0408773 -0.08771752 -0.06293414 -0.015101643 0.1361599 0.047765084 0.10660923 -0.07934609
-0.20327778 -0.08811446 0.11907973 -0.06136354 -0.06602825 0.13868095 0.009765559 -0.08040591
0.03163538 0.03538219 0.073133685 -0.029448807 0.00120709 -0.01573396 0.009574439 0.04159417
-0.08433559 0.008089886 0.028481193 0.012089192 -0.10130226 0.060776982 -0.0764582 -0.07825987
0.06634783 -0.11102369 -0.119490385 0.05054757 -0.097326785 -0.05792541 -0.06936757 0.021204473
-0.029224288 -0.08516116 -0.058970954 0.0065465006 -0.073454596 -0.122794844 0.19365956 0.009359748
-0.03775148 -0.11312455 0.2072337 0.045423552 0.022015505 0.042264592 -0.0121916495 0.048770994
0.14530534 0.03976421 0.011995649 -0.078588426 0.031397544 0.026242899 -0.08359673 -0.09945925
0.012574604 -0.017194198 -0.04784163 -0.009920117 -0.03847598 -0.12418921 0.13202314 -0.031878214
-0.06586325 -0.14383632 0.15391837 -0.1789231 0.18646194 0.06165502 -0.24181728 0.16646239
0.08048298 -0.040415093 -0.0018098907 0.106991276 0.104249574 0.10071834 0.068386964 0.00297912
00000000: 3287 a8bd d876 3bbd f5f9 2ebd 4d0b 31bd
00000010: ce70 24bc c935 12bd d728 2a3d fb62 a53d
00000020: ac45 133d 9e64 c9bd 3ef6 9cbb 9bd1 4e3d
00000030: 5a21 0e3e 5ba6 f23d 3d54 d03c 04bd cbbb
00000040: db77 233d 126d c5bd 2c9e 90bd 44e0 9a3d
00000050: 01ab 0abd 86ac bb3d 98cb 87bc 9ff1 00be
00000060: 2cfc 9c3d 3657 98bd 744d d1bd af5b 463d
00000070: faaf 253c 4009 1a3e f579 743c 816c 003e
00000080: baa2 673d c513 aa3d c24e 243d 34f3 11bd
00000090: c018 3abc 1f6f 61bd 7ba4 86bc 638f 9e37
000000a0: 857f 683d b73c 073d dbd6 73bd cdf9 f6bd
000000b0: ffa6 303d a14e d43d 6a1d 72be 0c40 2e3b
000000c0: c1dc f5bb 4c23 6fbc df20 9d3e 93ac 493c
000000d0: 8bf3 4d3d 2e17 813d ebcd 263e 2c98 35bd
000000e0: 7561 84bd 6393 243d 204b 4b3c e49c 78bc
000000f0: 4144 24bd cddd a53d 64d9 763d 94df 983d
00000100: cd19 c7bd 928a b6bc 095d d03d 5f3b a0bd
00000110: 3c72 f4bc ec89 80bd d555 bd3d 730c 323e
00000120: e244 103b f295 fc3c 77fe 85bd d592 43bd
00000130: 1497 bb3d 3beb 2a3c e00d 513b d9bf 1fbd
00000140: 4b71 fdbd fe68 8dbd ca19 36bd 1871 0abd
00000150: 91e0 6dbd e753 d9bd c54b b43d 9dbc 2c3e
00000160: ad0e 76be bfaf b5bd 7497 c0bc 86c2 8f3e
00000170: ee26 07bd 5ffa fbbd 56bf 943b c4fb 8cbc
00000180: 066e 30bc c6b8 0dbc b20f 58bb f5bf 81bd
00000190: 4261 2cbe 1b07 9d3d 77b1 a63b a959 0abc
000001a0: 44bd 033d 2f0c 243c 9959 e5bd 330e c83d
000001b0: be49 fc3e c50d bebd 9624 96bc 8b76 60bc
000001c0: 3f46 413e 3f78 c03d 3218 e9bd 4615 273e
000001d0: a87c 863b 787b da3d 611c a4bd e3a8 81bd
000001e0: 75b1 9cbd 3da3 bf3b 6dd0 823d 5a07 b93c
000001f0: 7676 7abc 4617 143d 7b11 1a3c 4707 99bd
00000200: 113d 9ebd 2b62 6f3d baf0 f9bc be53 84bd
00000210: 548d 8bbd ab73 33bd eded b7bd 4b6f e2bd
00000220: 9539 783d 8d31 9fbd 2e51 503d 511b dfbd
00000230: d92c a53c 6171 2d3d 73d6 aebd e452 a93d
00000240: 23e0 833a e3c6 d2bc 342c a2bc d115 b0bc
00000250: 51f1 88bd 6a31 573d cd88 45bd 8477 72bc
00000260: 3738 dd3d 662a 4a3d f3c5 61bd eddb d3bd
00000270: e04f 84bd 307a fdbd 04cd 183e 41c6 783c
00000280: b260 7a3d 2ba1 103e 6e3c 9d3d 3370 b03d
00000290: aba5 0a3d 8db6 19bd f8bb 3cbd cbc7 93bd
000002a0: f56e 273d 3ea5 b3bd 9de3 80bd e26c 77bc
000002b0: 806d 0b3e 52a5 433d f155 da3d 3480 a2bd
000002c0: 0d28 50be 5b75 b4bd 13e0 f33d 5658 7bbd
000002d0: d239 87bd 6102 0e3e b9ff 1f3c dbab a4bd
000002e0: 1a94 013d eaec 103d 1dc7 953d a03e f1bc
000002f0: 3837 9e3a 81e4 80bc 1cde 1c3c a65e 2a3d
00000300: 23b8 acbd 718b 043c 6451 e93c bf11 463c
00000310: 8f77 cfbd 49f1 783d 1e96 9cbd b646 a0bd
00000320: 5fe1 873d 6360 e3bd 60b7 f4bd f80a 4f3d
00000330: 4453 c7bd 3243 6dbd 9610 8ebd 01b5 ad3c
00000340: c667 efbc f968 aebd 878b 71bd 0784 d63b
00000350: 5d6f 96bd dd7b fbbd b14e 463e a159 193c
00000360: 4ca1 1abd d8ad e7bd 1235 543e 0c0e 3a3d
00000370: dc59 b43c a31d 2d3d 7cbf 47bc 18c4 473d
00000380: ecca 143e ccdf 223d 6689 443c f8f2 a0bd
00000390: b69a 003d 59fb d63c c334 abbd 4bb1 cbbd
000003a0: b605 4e3c d9da 8cbc 96f5 43bd fd87 22bc
000003b0: fd98 1dbd ea56 febd 1331 073e bb92 02bd
000003c0: 50e3 86bd d449 13be c79c 1d3e 9e37 37be
000003d0: e1ef 3e3e f989 7c3d f39e 77be 1e75 2a3e
000003e0: 43d4 a43d 4c8a 25bd db39 edba 3e1e db3d
000003f0: cd80 d53d 6b45 ce3d 770e 8c3d 573d 433b

layer1.bias f4 [128]
-0.043826345 0.04226196 -0.028293299 0.031483304 0.10492989 0.07379059 0.0031232086 0.056418747
0.03388729 -0.020348435 -0.08881687 -0.0015678455 0.15717709 0.093280025 -0.07862866 0.16025908
0.052348454 0.04416037 -0.020825472 -0.079625785 -0.0977724 -0.057371255 0.12755746 0.06434998
-0.034893144 0.051931538 0.085482806 -0.02678084 0.123964645 0.038052607 0.14640325 0.0812213
0.014414746 0.030932223 -0.077645734 -0.09915891 0.018027972 0.07454372 0.06853375 0.01422032
0.073240094 0.084933154 0.009836379 0.050658524 -0.081428304 0.10162134 0.026056759 0.07806163
-0.015602486 -0.02289953 0.061603155 0.065121874 0.0520512 0.030333202 -0.051449083 -0.05582736
-0.03409104 -0.030990554 -0.028894477 0.08085998 0.027539559 0.09305546 0.12955104 0.063348
-0.043208834 -0.100046806 0.11751046 0.06397708 0.08725173 0.08768158 0.022763716 0.07599594
-0.051103957 0.05527725 -0.0061060097 0.0044052666 0.068060406 0.009117253 0.12143747 0.042081878
-0.048211116 0.0016901157 -0.0063964687 -0.0708452 0.02042804 0.058436874 -0.013875092 0.024245765
0.07648313 -0.016036483 0.010464663 0.08395074 0.06910187 -0.07445419 -0.041952383 0.100308135
-0.032234333 0.15642443 0.04474355 0.006465016 0.035270594 -0.048670385 0.021166643 0.042539995
0.05266148 -0.0065595647 0.14960803 -0.035286564 -0.0052716923 0.045158584 0.063812815 -0.043297235
0.023749217 0.08339239 -0.012690485 0.0064963074 -0.07921669 -0.04003149 -0.06358324 0.077807605
-0.020954598 0.010968878 -0.041715693 0.110549 0.028293384 0.041143082 0.031222913 0.11398722
00000000: 4183 33bd e11a 2d3d 59c7 e7bc a3f4 003d
00000010: 7be5 d63d 851f 973d bfae 4c3b 5817 673d
00000020: 66cd 0a3d c3b1 a6bc 9ee5 b5bd 2a80 cdba
00000030: 08f3 203e 9909 bf3d 1008 a1bd f51a 243e
00000040: 556b 563d 81e1 343d 2e9a aabc d812 a3bd
00000050: e53c c8bd 1ffe 6abd 6c9e 023e ecc9 833d
00000060: 1dec 0ebd 2ab6 543d 9c11 af3d 7e63 dbbc
00000070: 2de1 fd3d 0ddd 1b3d bcea 153e 5a57 a63d
00000080: d42b 6c3c 9365 fd3c ba04 9fbd d413 cbbd
00000090: 66af 933c 61aa 983d 6c5b 8c3d 58fc 683c
000000a0: e7fe 953d 6ff1 ad3d c428 213c 507f 4f3d
000000b0: e2c3 a6bd d91e d03d fc74 d53c c7de 9f3d
000000c0: 92a1 7fbc cc97 bbbc 9753 7c3d 9e5e 853d
000000d0: a433 553d 567d f83c 46bc 52bd 3bab 64bd
000000e0: 0ca3 0bbd e7df fdbc 1cb4 ecbc eb99 a53d
000000f0: a49a e13c dc93 be3d 07a9 043e 99bc 813d
00000100: bffb 30bd 57e5 ccbd 53a9 f03d 6a06 833d
00000110: 09b1 b23d 6692 b33d f97a ba3c c2a3 9b3d
00000120: 6252 51bd 666a 623d ec14 c8bb 0e5a 903b
00000130: 4163 8b3d 8860 153c 35b4 f83d 0c5e 2c3d
00000140: 0579 45bd df86 dd3a 7899 d1bb 4a17 91bd
00000150: b458 a73c 815b 6f3d 5b54 63bc 0e9f c63c
00000160: 30a3 9c3d f15e 83bc fa73 2b3c 5eee ab3d
00000170: 4885 8d3d 707b 98bd 43d6 2bbd 5a6e cd3d
00000180: 2608 04bd ba2d 203e 0345 373d 7cd8 d33b
00000190: e677 103d 995a 47bd ab65 ad3c 6b3e 2e3d
000001a0: 90b3 573d 9ef1 d6bb d932 193e a588 10bd
000001b0: 29be acbb 35f8 383d 4bb0 823d 7158 31bd
000001c0: b88d c23c a1c9 aa3d c1eb 4fbc fade d43b
000001d0: 5c3c a2bd 0ff8 23bd ee37 82bd 9859 9f3d
000001e0: faa8 abbc cfb6 333c 13de 2abd 8467 e23d
000001f0: 87c7 e73c a685 283d 32c7 ff3c 2272 e93d

layer2.weight f4 [7, 128]
0.018502524 -0.31479347 -0.1606231 -0.1011853 -0.096671745 -0.032054313 -0.13254479 -0.15308352
-0.23359519 -0.120866306 -0.024932975 0.06183662 -0.13929678 -0.12555955 -0.08139109 -0.14554517
-0.025911437 -0.10544984 -0.1803754 -0.34522644 -0.065620646 -0.05965311 -0.16291928 -0.053682424
-0.06788981 -0.19356774 -0.1462669 -0.077550344 -0.08185965 -0.00414488 -0.075991675 -0.17819577
-0.3158948 -0.03799224 -0.0822797 -0.06175421 -0.274123 -0.07041815 -0.12364839 0.050219666
-0.13622724 0.021147873 0.015642725 -0.20923132 0.0087753115 -0.25808138 -0.026567956 -0.071965046
-0.030340353 -0.0535221 -0.15808411 -0.075259715 -0.08758609 -0.09688817 -0.16792576 -0.25954753
-0.31126124 -0.094356544 -0.12944041 -0.015595006 -0.066808745 -0.18088713 -0.07424045 -0.30855855
-0.28009096 0.07142578 -0.055486172 -0.17878878 -0.011732518 -0.060933884 -0.11157647 -0.0005664032
-0.06696087 0.004673818 -0.13023978 -0.07127509 -0.174711 0.058964834 -0.09151274 0.06345935
-0.07624127 -0.17026097 -0.094163135 -0.13997906 -0.17452718 -0.07483224 -0.19277455 -0.050065387
-0.09868047 -0.15905556 -0.08558589 -0.1093607 -0.03424083 -0.11081496 -0.112957 0.0026642869
0.06055166 -0.12602423 -0.005460009 -0.10355623 -0.14770354 -0.20374882 -0.12441474 -0.19123453
-0.32615197 -0.06508889 -0.18096398 -0.045658298 -0.1339196 -0.16581804 -0.009597713 0.031538144
-0.0664014 -0.042542227 -0.09512993 -0.1623732 -0.117995806 -0.298633 -0.13484427 -0.05296101
-0.20780931 0.090319514 0.03280151 -0.037866715 -0.106207944 -0.08145138 -0.036055863 -0.1282582
0.26662207 -0.019521436 -0.1094885 0.0031229663 0.0002150032 0.011352837 -0.23118302 0.1618934
-0.0801326 0.03381708 -0.08227736 -0.06769878 -0.15236422 -0.018527145 0.25333402 -0.19956046
-0.057990544 -0.13011973 0.074728616 0.10534989 0.08495522 0.2786317 -0.025482671 0.054234862
-0.14739986 -0.024987452 -0.115599625 0.07373413 -0.20794524 -0.19956306 -0.21690431 0.0143957175
-0.17987034 0.063898526 0.010049774 -0.0060380064 -0.2384253 -0.20048313 -0.16084303 -0.20172516
-0.2847445 0.1389468 -0.19844243 0.21722521 0.07250292 -0.14615229 -0.24906743 -0.009276508
0.14044201 0.07832821 0.07765857 -0.08364466 0.14070174 -0.13355292 -0.10358889 0.20828138
0.054082613 0.14763375 0.030134363 0.060742322 0.122196764 0.01023279 -0.032610465 0.25826764
0.08822398 -0.03329933 -0.20578083 -0.2220893 -0.12163361 0.11966355 -0.17416777 -0.2040703
-0.29950666 -0.34325737 -0.1446627 -0.18436883 0.094706655 0.044947226 -0.013258416 0.015608708
0.073065564 -0.05216783 0.24908908 0.17231527 0.1331329 -0.0019599593 -0.0120202545 0.08989059
-0.25688377 0.17937705 -0.004703142 -0.25638485 0.048949253 -0.17380553 0.18626747 0.23497222
0.08919274 -0.13166252 -0.3282576 0.09126308 0.27886394 0.062357754 -0.101305075 0.08598885
0.28810188 0.099632956 -0.16466151 0.11248062 -0.23844783 -0.10448646 -0.27856252 -0.18598026
0.11668438 0.13561668 0.03519549 0.014110875 0.040299576 -0.059189703 0.080006994 0.16011353
0.045590404 -0.052231807 0.04935175 -0.056027964 -0.1376765 0.28139925 0.044268988 -0.20352913
00000000: 9b92 973c 9c2c a1be 627a 24be 3d3a cfbd
00000010: d6fb c5bd 624b 03bd d2b9 07be edc1 1cbe
00000020: 9433 6fbe c188 f7bd 3d40 ccbc 6548 7d3d
00000030: d1a3 0ebe af92 00be 5fb0 a6bd cb09 15be
00000040: 3944 d4bc 16f6 d7bd 54b4 38be 85c1 b0be
00000050: 1e64 86bd d256 74bd 50d4 26be 1ae2 5bbd
00000060: d009 8bbd 9f36 46be fdc6 15be b7d2 9ebd
00000070: 08a6 a7bd c6d1 87bb 86a1 9bbd f478 36be
00000080: f7bc a1be c09d 1bbd 4282 a8bd fcf1 7cbd
00000090: da59 8cbe 6437 90bd 5e3b fdbd 23b3 4d3d
000000a0: 277f 0bbe 4e3e ad3c 2c25 803c bc40 56be
000000b0: 53c6 0f3c 3e23 84be 0ba5 d9bc 6962 93bd
000000c0: 558c f8bc fd39 5bbd cde0 21be c421 9abd
000000d0: 5660 b3bd 4e6d c6bd bbf4 2bbe 6ae3 84be
000000e0: a25d 9fbe 013e c1bd 078c 04be 3282 7fbc
000000f0: 06d3 88bd 7a3a 39be 610b 98bd 63fb 9dbe
00000100: 1568 8fbe ae47 923d 7845 63bd 6814 37be
00000110: bf39 40bc cf95 79bd 3482 e4bd ad7a 14ba
00000120: c822 89bd d426 993b 945d 05be adf8 91bd
00000130: 71e7 32be 1c85 713d 086b bbbd faf6 813d
00000140: 6224 9cbd e458 2ebe 9ad8 c0bd ac56 0fbe
00000150: 41b7 32be a541 99bd b166 45be 5d11 4dbd
00000160: fc18 cabd 76df 22be a847 afbd 81f8 dfbd
00000170: 1d40 0cbd f4f2 e2bd 0056 e7bd 519b 2e3b
00000180: 0405 783d 7f0c 01be e0e9 b2bb 4a15 d4bd
00000190: 993f 17be 88a3 50be 28cd febd fcd2 43be
000001a0: 64fd a6be 534d 85bd 9f4e 39be 3204 3bbd
000001b0: 3822 09be 34cc 29be ba3f 1dbc 242e 013d
000001c0: 75fd 87bd c240 2ebd 7bd3 c2bd 2945 26be
000001d0: c9a7 f1bd 6de6 98be 9e14 0abe a5ed 58bd
000001e0: f7cb 54be 70f9 b83d e05a 063d 211a 1bbd
000001f0: 8d83 d9bd fbcf a6bd 50af 13bd 1e56 03be
00000200: b082 883e 6beb 9fbc 823b e0bd aeaa 4c3b
00000210: 7b72 6139 4001 3a3c 3ebb 6cbe 62c7 253e
00000220: 901c a4bd c783 0a3d 0881 a8bd a8a5 8abd
00000230: 5e05 1cbe 3dc6 97bc ffb4 813e 9459 4cbe
00000240: 7e87 6dbd 1b3e 05be 510b 993d afc1 d73d
00000250: 01fd ad3d d0a8 8e3e 09c1 d0bc 6025 5e3d
00000260: fdef 16be 7cb2 ccbc 7fbf ecbd eb01 973d
00000270: 99ef 54be 425a 4cbe 2a1c 5ebe 04dc 6b3c
00000280: ee2f 38be 3bdd 823d cfa7 243c 78da c5bb
00000290: c325 74be 734b 4dbe 09b4 24be 0a91 4ebe
000002a0: 08ca 91be 1248 0e3e 7e34 4bbe 4970 5e3e
000002b0: 697c 943d f2a8 15be 880b 7fbe 7ffc 17bc
000002c0: 08d0 0f3e 8a6a a03d 750b 9f3d e44d abbd
000002d0: 1e14 103e 19c2 08be 6926 d4bd b747 553e
000002e0: bb85 5d3d 4d2d 173e 57dc f63c f1cc 783d
000002f0: 4c42 fa3d 6fa7 273c 8d92 05bd a83b 843e
00000300: c6ae b43d e164 08bd 36b8 52be 616b 63be
00000310: 0b1b f9bd 2a12 f53d 0959 32be cef7 50be
00000320: f058 99be 6ebf afbe 7522 14be 2fcb 3cbe
00000330: 90f5 c13d 951a 383d d439 59bc abbb 7f3c
00000340: 66a3 953d efad 55bd 3511 7f3e 6a73 303e
00000350: fe53 083e a972 00bb 9af0 44bc 8f18 b83d
00000360: 4586 83be 9eae 373e d11c 9abb e044 83be
00000370: 037f 483d 14fa 31be e6bc 3e3e 8f9c 703e
00000380: afaa b63d 8ad2 06be 6111 a8be 23e8 ba3d
00000390: 41c7 8e3e d86a 7f3d 0979 cfbd ec1a b03d
000003a0: 1782 933e 5d0c cc3d 079d 28be 3d5c e63d
000003b0: ab2b 74be fffc d5bd bf9f 8ebe 9c71 3ebe
000003c0: 38f8 ee3d 19df 0a3e 2529 103d 4d31 673c
000003d0: 2b11 253d e770 72bd b5da a33d cdf4 233e
000003e0: 01bd 3a3d 05f1 55bd 1025 4a3d 947d 65bd
000003f0: 12fb 0cbe 9013 903e 6653 353d f169 50be

layer2.bias f4 [7]
-0.05632663 0.045434467 -0.057230122 0.04330737 0.03973967 -0.06517917 -0.078149244
00000000: c1b6 66bd 7e19 3a3d 226a 6abd 1263 313d
00000010: 10c6 223d a87c 85bd b60c a0bd
