saved_models/FCPolicyInterrupt.pt (torch, 70355 bytes, 4 tensors)

layer1.weight f4 [128, 126]
00000000: 270d a9bd d876 3bbd f5f9 2ebd 3617 32bd
00000010: ce70 24bc c935 12bd 5d1d 293d fb62 a53d
00000020: ac45 133d da2f c9bd 58e6 a2bb 2dfa 4d3d
00000030: aa3d 0e3e 6720 f23d 9da6 ce3c 981c d4bb
00000040: db77 233d 126d c5bd 9218 91bd 44e0 9a3d
00000050: cb78 0cbd 9126 bb3d 98cb 87bc 9ff1 00be
00000060: 3776 9c3d 3657 98bd 744d d1bd ac33 453d
00000070: dfb8 273c 8243 1a3e e8f3 753c 0222 003e
00000080: f945 673d 7233 aa3d b947 233d a095 12bd
00000090: 3143 3ebc 1f6f 61bd 2a21 87bc b5b9 61b9
000000a0: 705e 673d 2644 063d c4e2 74bd cdf9 f6bd
000000b0: ffa6 303d acc8 d33d 6a1d 72be 0c40 2e3b
000000c0: 49de febb 04c4 6ebc 0327 9d3e 35d5 3c3c
000000d0: b0c5 4c3d 992a 813d 0bce 263e 6034 36bd
000000e0: 3edb 84bd 8b7d 233d 040e 493c fd1a 76bc
000000f0: 8a42 25bd cddd a53d cde0 753d 9f59 983d
00000100: cd19 c7bd 928a b6bc 0db8 cf3d 498e 9fbd
00000110: a318 f3bc 2713 81bd da0b be3d 07cb 313e
00000120: 5489 fa3a 3b87 fd3c 84dc 86bd 683a 43bd
00000130: e721 bb3d 153e 283c 8ed8 393b e7a7 1fbd
00000140: f9b0 fcbd 86c2 8dbd d05d 36bd 0e80 0bbd
00000150: 7aec 6ebd e753 d9bd c54b b43d 5e76 2c3e
00000160: 483d 76be 0843 b5bd 7b48 c2bc 509c 8f3e
00000170: 3580 06bd 057e fcbd 5117 933b 85da 8fbc
00000180: 95a9 2ebc e529 10bc edfe 66bb 0978 82bd
00000190: 4a3f 2cbe 3c11 9d3d cdd0 a43b c65c 0bbc
000001a0: f510 023d 2ba8 1f3c 9959 e5bd 72b2 c83d
000001b0: 2834 fc3e 767b bebd d473 96bc b5ff 64bc
000001c0: 082f 413e 0292 c03d 53b7 eabd 29ae 263e
000001d0: 8f70 863b 90f8 d93d 9da6 a4bd 87db 81bd
000001e0: 9e99 9cbd 5a17 ba3b e23f 823d 98e3 b93c
000001f0: 70b6 7ebc 236a 123d d22e 183c 4707 99bd
00000200: 113d 9ebd 80e9 6e3d baf0 f9bc be53 84bd
00000210: acc9 8bbd ab73 33bd eded b7bd 4b6f e2bd
00000220: eebb 773d 7d3d 9fbd 3926 513d 8af2 debd
00000230: 4c84 a33c b3f8 2c3d 73d6 aebd e452 a93d
00000240: 55b8 683a e3c6 d2bc cbc8 a1bc 1907 b1bc
00000250: 51f1 88bd 6a31 573d 7801 46bd 8477 72bc
00000260: 3738 dd3d 27b2 493d afac 61bd a2f4 d3bd
00000270: e04f 84bd 5140 fdbd 1e95 183e 3e25 7f3c
00000280: 6686 7a3d e461 103e 8d00 9d3d 3370 b03d
00000290: f08a 0a3d 2f32 1abd 175d 3dbd 2295 93bd
000002a0: 4af6 263d 3ea5 b3bd 9de3 80bd 894f 79bc
000002b0: 806d 0b3e 52a5 433d 2b16 da3d 553c a2bd
000002c0: 7043 50be 5b75 b4bd 03d1 f33d affc 7bbd
000002d0: e2d7 86bd 8ac3 0d3e afff 203c ffdc a4bd
000002e0: 7c64 013d 9444 103d 4489 953d a03e f1bc
000002f0: 5bfe a13a c9d5 81bc 1cde 1c3c a65e 2a3d
00000300: 63dd acbd 5c55 003c 8840 e83c a56e 443c
00000310: 9d33 d0bd e5bf 793d 1e96 9cbd 44be a0bd
00000320: 44f3 873d 6360 e3bd 40eb f4bd 45c6 4e3d
00000330: b465 c7bd e39d 6dbd 0094 8ebd d6f9 ab3c
00000340: a993 eebc 2ceb adbd 3204 72bd 0784 d63b
00000350: 5d6f 96bd 43bd fbbd 7d77 463e d08d 173c
00000360: 834d 1bbd e116 e7bd 4f0d 543e 0c0e 3a3d
00000370: 9471 b33c 1bee 2c3d 7cbf 47bc 4950 473d
00000380: 4ebb 143e 3f30 223d 30dd 443c 52df a0bd
00000390: 414d fe3c 1e3e d73c b630 aabd 25ea cbbd
000003a0: b605 4e3c 8668 8fbc 2fc2 41bd cbc5 24bc
000003b0: acec 1ebd 82c0 febd 8947 073e 9e82 02bd
000003c0: 50e3 86bd d759 13be ac83 1d3e 9e37 37be
000003d0: f203 3f3e e08b 7b3d 84ab 77be b126 2a3e
000003e0: 1a62 a53d e0c8 26bd 5ee3 d3ba aa3f db3d
000003f0: ab7b d53d 6b45 ce3d 770e 8c3d 7598 423b
-0.08254462 -0.045767635 -0.042718846 -0.043479167 -0.01003666 -0.035695825 0.04128777 0.0807552
0.035955116 -0.0982358 -0.004971307 0.050287414 0.1389071 0.118225865 0.025225932 -0.006473135
0.039909225 -0.09639944 -0.070847645 0.075623065 -0.034294885 0.09138215 -0.016576573 -0.12592171
0.07639735 -0.07438509 -0.10219851 0.04814498 0.010236948 0.15064815 0.015011765 0.12512973
0.056463216 0.08310594 0.039863322 -0.035787225 -0.011612699 -0.055037614 -0.016495306 -0.00021526853
0.056486547 0.032779835 -0.059786573 -0.120593645 0.04312801 0.103410095 -0.23644033 0.0026588468
-0.0077779633 -0.014573101 0.30693826 0.011525442 0.049993217 0.06306953 0.16289537 -0.044483542
-0.0648713 0.03991465 0.012271408 -0.015021083 -0.04034666 0.08098946 0.06002884 0.07438969
-0.09721718 -0.022282872 0.10142527 -0.077908106 -0.029674834 -0.06302481 0.09279604 0.17362605
0.0019114413 0.030948272 -0.06585029 -0.047663122 0.09137326 0.010268708 0.0028357836 -0.038978484
-0.12338442 -0.06921868 -0.04452306 -0.03405767 -0.05833099 -0.10611706 0.088035144 0.16842028
-0.24046814 -0.08850676 -0.023716202 0.28048944 -0.03283711 -0.12328724 0.0044888635 -0.017560253
-0.010660549 -0.008799051 -0.0035247162 -0.06370551 -0.16821018 0.07669303 0.005029774 -0.008506006
0.031754453 0.009744684 -0.1119873 0.09799661 0.49258542 -0.09300892 -0.018365778 -0.013976981
0.18865597 0.09402849 -0.114607476 0.16277374 0.0041027735 0.10643113 -0.080395915 -0.063407
-0.07646488 0.0056790533 0.06359841 0.022691533 -0.015546426 0.03574575 0.009288507 -0.07472091
-0.07726491 0.05832815 -0.030510295 -0.06461285 -0.06825575 -0.04381148 -0.089809276 -0.11056384
0.060481958 -0.077754 0.051061843 -0.108861044 0.019960545 0.042229366 -0.08536997 0.08267763
0.0008877565 -0.025729602 -0.019749066 -0.02160983 -0.066866525 0.05253736 -0.048341244 -0.014799003
0.10801738 0.049242165 -0.055096325 -0.103493944 -0.064605474 -0.12365783 0.14900634 0.015572844
0.06116333 0.14099842 0.07666121 0.0861515 0.033823907 -0.037645515 -0.046231356 -0.07206179
0.040762223 -0.08771752 -0.06293414 -0.015216717 0.1361599 0.047765084 0.106487595 -0.07921664
-0.20338225 -0.08811446 0.119051 -0.061520275 -0.06584145 0.13844123 0.009826585 -0.08049964
0.03158997 0.03522165 0.07301572 -0.029448807 0.0012359129 -0.015849011 0.009574439 0.04159417
-0.08440664 0.007832851 0.028351083 0.01198927 -0.101660945 0.06097402 -0.0764582 -0.0784879
0.06638196 -0.11102369 -0.11958933 0.050482053 -0.09736195 -0.0580119 -0.069618225 0.020993154
-0.029123144 -0.08492121 -0.059086032 0.0065465006 -0.073454596 -0.12291958 0.19381519 0.009250119
-0.037915718 -0.11283661 0.20708202 0.045423552 0.021904744 0.042219263 -0.0121916495 0.04866055
0.14524576 0.039596792 0.012015626 -0.07855095 0.031042697 0.026274737 -0.08310072 -0.09956769
0.012574604 -0.017505895 -0.04730433 -0.010056923 -0.038799927 -0.12439062 0.13210882 -0.031862848
-0.06586325 -0.1438974 0.1538226 -0.1789231 0.18653849 0.061412692 -0.24186522 0.16616322
0.08075352 -0.040718913 -0.0016165783 0.10705502 0.104239784 0.10071834 0.068386964 0.0029692922

layer1.bias f4 [128]
00000000: 2a8f 34bd 36a2 2c3d f9db e7bc 04e5 003d
00000010: 9cfd d53d bd4b 973d 05d5 5f3b 3fb3 673d
00000020: f6b9 0a3d b167 a5bc 7eec b5bd 2a80 cdba
00000030: bd04 213e 2890 be3d b218 a1bd df81 243e
00000040: 3f0c 553d 0aa5 343d 0f91 aabc ae69 a3bd
00000050: e53c c8bd 57cf 6abd 6ed0 023e ca0d 843d
00000060: 2d46 0fbd 733f 533d e5ce ae3d d2cf dbbc
00000070: 968c fd3d 3b69 1c3d 8d1e 163e 86ff a53d
00000080: 6cd4 6d3c ee1e f93c 3d9a 9fbd d413 cbbd
00000090: bd61 943c 4e0a 993d b0e9 8c3d ebe7 6e3c
000000a0: f1c4 963d 9db8 ad3d f1e9 263c cc52 4f3d
000000b0: e2c3 a6bd cc8a d03d d077 d73c 54bd 9e3d
000000c0: 0fbf 81bc 0957 bbbc d73a 7d3d 6f2b 853d
000000d0: 418e 533d 961f f93c 79e6 52bd 89cb 64bd
000000e0: 0c72 0cbd 46bd febc 8f6f edbc f6a4 a53d
000000f0: 7501 e23c c946 be3d f33f 043e 40a8 813d
00000100: 9e9f 31bd 57e5 ccbd 255b f13d 571c 833d
00000110: 38ad b23d e99d b23d 764c b93c e644 9c3d
00000120: ba58 51bd 8a65 633d 31ee c2bb 64ac 8c3b
00000130: dcc5 8a3d 8860 153c cefa f83d eb93 2b3d
00000140: 148a 45bd 072a b23a bba0 dbbb 5b4d 92bd
00000150: 4649 a43c 815b 6f3d bbc7 61bc 071b c73c
00000160: 7a2b 9d3d 2773 85bc de91 243c bc93 ac3d
00000170: c036 8d3d 29de 97bd ca14 2cbd 6289 cd3d
00000180: 2608 04bd 167a 203e cf37 383d 2bed d13b
00000190: c2d2 0e3d b007 48bd 876a ae3c 25ca 2d3d
000001a0: 1ea7 573d da8a d8bb a686 193e bb2a 11bd
000001b0: f7fb 9ebb 82a9 393d cf3b 833d 5b2c 30bd
000001c0: b606 c23c 5740 aa3d 81ca 51bc a6f8 ce3b
000001d0: 7561 a2bd e928 25bd c62f 83bd d1fb 9e3d
000001e0: f0bb aebc fb40 3b3c 13de 2abd 2e4b e33d
000001f0: 03c8 e93c e343 283d cbb2 fe3c 66c5 e93d
-0.044081844 0.042146884 -0.028303133 0.031468406 0.10448763 0.07387493 0.003415407 0.056567427
0.033868752 -0.020191045 -0.08882998 -0.0015678455 0.15724464 0.093048394 -0.078660384 0.16065167
0.052013632 0.044102706 -0.020821122 -0.07979141 -0.0977724 -0.05732664 0.12774822 0.064479426
-0.034979034 0.05157418 0.08535556 -0.026832495 0.1238033 0.038186293 0.14660092 0.08105378
0.014515977 0.030410256 -0.077930905 -0.09915891 0.018113011 0.074726686 0.0688051 0.014581661
0.07361782 0.08482478 0.010187612 0.05061607 -0.081428304 0.101827234 0.026302248 0.07750955
-0.015838174 -0.02286865 0.061823692 0.06502425 0.051649336 0.03041057 -0.051489327 -0.05585817
-0.03428845 -0.031096112 -0.02898386 0.080881044 0.027588585 0.09290845 0.1291502 0.06330919
-0.043365113 -0.100046806 0.117849626 0.0640189 0.08724445 0.08721525 0.022619467 0.07630329
-0.051110007 0.055516757 -0.005948805 0.0042930115 0.0677602 0.009117253 0.12157212 0.041889112
-0.048227385 0.0013592847 -0.00670251 -0.07143661 0.02005447 0.058436874 -0.01378053 0.02430488
0.07674308 -0.01629026 0.010044543 0.084266156 0.06895208 -0.074154206 -0.042012013 0.10035969
-0.032234333 0.15671572 0.0449751 0.0064064465 0.034868963 -0.048835456 0.02129103 0.04242911
0.05264961 -0.0066083493 0.1499277 -0.03544114 -0.004851814 0.04532767 0.06407892 -0.04301105
0.02368484 0.08313053 -0.012804628 0.0063162623 -0.07928745 -0.040322218 -0.064055964 0.07762874
-0.02132985 0.011429067 -0.041715693 0.11098324 0.028537756 0.041080367 0.031091115 0.11414604

layer2.weight f4 [7, 128]
00000000: fa32 973c 3f42 a1be f286 24be 344e cfbd
00000010: ba07 c6bd 25d4 03bd 47c4 07be abd3 1cbe
00000020: 8133 6fbe 3987 f7bd 7654 ccbc 6548 7d3d
00000030: aead 0ebe 129a 00be d2ac a6bd 2214 15be
00000040: 9fc6 d4bc c50b d8bd 47b6 38be ebd6 b0be
00000050: 1e64 86bd d956 74bd 07df 26be 3df0 5bbd
00000060: 3f41 8bbd de45 46be 54d2 15be b5c3 9ebd
00000070: 2fb4 a7bd d6e0 88bb d3b8 9bbd 5b7c 36be
00000080: 64f2 a1be 78aa 1bbd 6586 a8bd fcf1 7cbd
00000090: 8b4d 8cbe bb47 90bd 4a4f fdbd 1f93 4d3d
000000a0: 728b 0bbe 9b52 ad3c 15bf 7f3c 7742 56be
000000b0: 53c6 0f3c 3823 84be e58f dabc 5e6f 93bd
000000c0: 5a6b f8bc f332 5bbd 69e5 21be 3532 9abd
000000d0: 005f b3bd 1086 c6bd 47f5 2bbe 17e1 84be
000000e0: 485d 9fbe f839 c1bd 1692 04be 6261 7fbc
000000f0: 77df 88bd 293a 39be e518 98bd 7e6d 9ebe
00000100: 7869 8fbe ae47 923d 7286 63bd 4423 37be
00000110: efa0 40bc 77b5 79bd 74a4 e4bd e8a3 20ba
00000120: b13a 89bd c537 983b 1168 05be 470f 92bd
00000130: 83ea 32be 1c85 713d 3c86 bbbd 2521 823d
00000140: e21d 9cbd be62 2ebe 59d7 c0bd ee55 0fbe
00000150: c1bb 32be a541 99bd 606f 45be 2b36 4dbd
00000160: f82a cabd 49e0 22be d059 afbd ad08 e0bd
00000170: cd57 0cbd df01 e4bd 6953 e7bd 5c5a 2e3b
00000180: 0405 783d 3813 01be d737 b4bb 991f d4bd
00000190: e63d 17be 11a8 50be 37d3 febd 1fd4 43be
000001a0: 3efa a6be fc4e 85bd 6958 39be 3f05 3bbd
000001b0: a82a 09be a6d6 29be 7a49 1ebc 0c03 013d
000001c0: 37fb 87bd 8157 2ebd 15d9 c2bd 584a 26be
000001d0: 86ac f1bd 4514 99be 4817 0abe 91f2 58bd
000001e0: 23ce 54be 49ed b83d e05a 063d 793b 1bbd
000001f0: 139f d9bd 9acc a6bd a7bc 13bd b75e 03be
00000200: 075d 883e d5bd a2bc 5849 e1bd 5d27 3c3b
00000210: bb3e 53b9 e25c 363c fe0d 6dbe 8f8e 253e
00000220: d7ca a4bd ef99 093d 7647 a9bd a8a5 8abd
00000230: fc70 1cbe 90a4 9abc 6a98 813e faa7 4cbe
00000240: ee78 6fbd d9b2 05be 659d 983d d625 d73d
00000250: 01fd ad3d e18d 8e3e 920a d3bc 7821 5d3d
00000260: f16b 17be 38f9 d0bc c3d9 edbd 6020 973d
00000270: 494a 55be acc3 4cbe 1a95 5ebe 1830 673c
00000280: cdb9 38be 7e54 823d 7063 1e3c 78da c5bb
00000290: a189 74be fcaa 4dbe 62fc 24be ace3 4ebe
000002a0: 22fc 91be 4b0d 0e3e 7d7e 4bbe fe3b 5e3e
000002b0: 697c 943d 7b03 16be 8984 7fbe 41e9 1ebc
000002c0: c08b 0f3e cdf7 9f3d d88f 9e3d 8041 acbd
000002d0: 1eb5 0f3e 4626 09be 4bd2 d4bd 911b 553e
000002e0: 4af9 5b3d eaee 163e 73a3 f43c badc 773d
000002f0: d2cc f93d e0b9 213c b04f 07bd 7e0a 843e
00000300: 030e b43d e164 08bd 45ff 52be 86ff 63be
00000310: 6d1f fabd 5c54 f43d e1d7 32be e450 51be
00000320: 6597 99be 41ea afbe 5886 14be ce4a 3dbe
00000330: 3f50 c13d 951a 383d 3256 5fbc 0470 7d3c
00000340: 4334 953d 469b 57bd 3dcc 7e3e 3c1e 303e
00000350: 2bef 073e a972 00bb 326e 4abc 88a2 b73d
00000360: 28b9 83be 7d5d 373e 292a a7bb 197e 83be
00000370: 7002 473d c34d 32be b486 3e3e e268 703e
00000380: afaa b63d 011d 07be 1045 a8be 8e3b ba3d
00000390: dcb3 8e3e 63f7 7d3d af09 d0bd c072 af3d
000003a0: 0b75 933e 0e6e cb3d 06f6 28be a5c5 e53d
000003b0: 3a86 74be 9dbb d6bd 31d1 8ebe f6b8 3ebe
000003c0: 907f ee3d 899b 0a3e 8315 0f3d ba4d 623c
000003d0: f88e 233d 2b26 74bd 1524 a33d 66b5 233e
000003e0: fb6f 393d 4fd9 56bd 1025 4a3d a07e 66bd
000003f0: bd5d 0dbe 36f3 8f3e 5a53 343d bad5 50be
0.018456925 -0.31495854 -0.16067103 -0.10122338 -0.096694425 -0.03218474 -0.13258468 -0.1531512
-0.23359491 -0.120863385 -0.024942618 0.06183662 -0.13933441 -0.12558773 -0.081384316 -0.14558461
-0.025973616 -0.1054912 -0.18038283 -0.3453897 -0.065620646 -0.059653137 -0.16296016 -0.053695906
-0.06799554 -0.1936259 -0.14631015 -0.07752172 -0.08188664 -0.004177193 -0.07603612 -0.17820875
-0.31630242 -0.03800437 -0.08228759 -0.06175421 -0.2740291 -0.070449315 -0.12368639 0.050189134
-0.13627413 0.021157553 0.015609522 -0.20923792 0.0087753115 -0.2580812 -0.026679942 -0.07198976
-0.030324627 -0.053515386 -0.1581017 -0.075291075 -0.08758354 -0.09693539 -0.16792785 -0.2595298
-0.31125855 -0.09434885 -0.12946352 -0.015587183 -0.066832475 -0.18088593 -0.07426623 -0.3094291
-0.28010154 0.07142578 -0.05554814 -0.17884547 -0.01175712 -0.060964074 -0.111641794 -0.00061279396
-0.067006476 0.00464532 -0.1302798 -0.0713182 -0.17472272 0.058964834 -0.091564626 0.06353978
-0.07622887 -0.17029855 -0.09416074 -0.13997623 -0.17454435 -0.07483224 -0.19280767 -0.050100487
-0.09871477 -0.1590587 -0.08562052 -0.10939155 -0.03426342 -0.111331694 -0.11295206 0.0026604151
0.06055166 -0.12604988 -0.0054998207 -0.10357589 -0.14769706 -0.20376612 -0.1244263 -0.19123887
-0.32612795 -0.06509206 -0.18100132 -0.0456593 -0.13395178 -0.16585788 -0.009661073 0.031497046
-0.06639712 -0.04256392 -0.09514061 -0.16239297 -0.11800484 -0.29898277 -0.13485444 -0.052965704
-0.2078176 0.090296336 0.03280151 -0.037898514 -0.10626044 -0.081444934 -0.036068585 -0.128291
0.26633474 -0.01986591 -0.11000317 0.0028709986 -0.00020145897 0.011130543 -0.23149869 0.16167663
-0.08046501 0.03359407 -0.08265583 -0.06769878 -0.15277475 -0.018877298 0.25311595 -0.19985953
-0.058464937 -0.13056506 0.074518956 0.105052635 0.08495522 0.2784262 -0.025761876 0.053986996
-0.1478727 -0.025509462 -0.116138004 0.07379222 -0.20829119 -0.19996518 -0.21736565 0.014110588
-0.18039627 0.06363772 0.009667262 -0.0060380064 -0.23880626 -0.20084757 -0.16111901 -0.20204037
-0.28512675 0.13872258 -0.1987247 0.21702573 0.07250292 -0.14649765 -0.24952902 -0.009699167
0.14018154 0.07810936 0.0774228 -0.08410931 0.14033934 -0.13393506 -0.10391673 0.20811297
0.053704537 0.14739576 0.029863095 0.060513236 0.121972695 0.009870976 -0.03303498 0.25789255
0.08791735 -0.03329933 -0.2060519 -0.22265443 -0.12213025 0.11930153 -0.17465164 -0.20441014
-0.29998317 -0.3435841 -0.14504373 -0.18485567 0.09439134 0.044947226 -0.01363139 0.015468601
0.07285359 -0.052638315 0.24882598 0.17199033 0.13274829 -0.0019599593 -0.012355374 0.08966547
-0.257272 0.17906757 -0.0051014614 -0.25682142 0.04858631 -0.17412476 0.18606073 0.2347751
0.08919274 -0.13194658 -0.3286519 0.090933904 0.27871597 0.062003504 -0.10158097 0.08566809
0.28800234 0.09933101 -0.165001 0.11219338 -0.23879328 -0.10485003 -0.27893975 -0.18625244
0.11645424 0.13535894 0.034932625 0.013812477 0.039931267 -0.059606712 0.079658665 0.15987167
0.04527281 -0.052453335 0.04935175 -0.056273103 -0.1380529 0.28115243 0.044024803 -0.2039403

layer2.bias f4 [7]
00000000: 7acc 66bd 6ebc 383d 4122 6bbd e8f9 303d
00000010: 7225 233d 6268 84bd 6752 a0bd
-0.056347348 0.045101576 -0.057405714 0.04320708 0.039830633 -0.06465222 -0.07828217
