saved_models/FCPolicy.pt (torch, 70351 bytes, 4 tensors)

layer1.weight f4 [128, 126]
000000 48 d2 9c bd d8 76 3b bd f5 f9 2e bd d1 1f 1a bd
       -0.076572955 -0.045767635 -0.042718846 -0.037628
000010 b0 f7 38 bc 1a cd 77 bc 3b 57 3d 3d 4c cc b7 3d
       -0.011289522 -0.015124584 0.046225768 0.089745134
000020 f8 fe 28 3d f1 dc ee bd 7f 2b 27 3c 06 95 9b 3c
       0.041258782 -0.11663235 0.010203241 0.018991958
000030 43 16 a7 3d 59 ff b3 3d 31 b7 8c 3d 8a 08 a1 ba
       0.08158543 0.08788938 0.068708785 -0.001228587
000040 92 17 37 3d 81 cc bf bd 38 fc 84 bd 90 b5 9c 3d
       0.044700213 -0.09365178 -0.064934194 0.07651818
000050 52 95 07 bd 0b 63 c7 3d 35 40 8f bc 9f f1 00 be
       -0.033101387 0.09735688 -0.017486671 -0.12592171
000060 68 2a a4 3d a6 21 49 bd 1a 8c c2 bd de d0 68 3d
       0.08015901 -0.049104355 -0.094993785 0.056839816
000070 97 f6 4e 3c 3c b1 07 3e 40 28 5f 3c fc ec c9 3d
       0.012632034 0.13251203 0.013620436 0.09859654
000080 43 b6 86 3d 14 96 4b 3d ea 82 85 3d 74 c8 43 bd
       0.065777324 0.049703673 0.065191105 -0.04779859
000090 57 9a da bb 8f f5 5b bd cf 31 37 bc 36 2f b7 3b
       -0.006671231 -0.05370098 -0.011181309 0.005590345
0000a0 d0 e4 68 3d 35 97 0b 3d 2f 6c 5c bd 72 0c f5 bd
       0.056858838 0.03407975 -0.05381411 -0.119652644
0000b0 54 a0 2c 3d 55 0e c6 3d 30 17 4f be 48 4b f6 3c
       0.04214509 0.09670702 -0.20223689 0.030065194
0000c0 30 44 87 ba d4 de 1f bd 89 4c 9f 3e fa 31 8f 3c
       -0.0010320004 -0.039030865 0.3111308 0.017479885
0000d0 e4 9b 83 3d 7a b7 f5 3c ee ec bd 3d e7 72 39 bd
       0.06426218 0.029994715 0.092737064 -0.045275595
0000e0 f8 5f 14 bd 73 39 31 3d 60 61 98 3c ab 08 64 bb
       -0.036224335 0.04326768 0.01860112 -0.0034795206
0000f0 cc c5 0e bd f3 75 a3 3d ca 82 86 3d 5e 97 a4 3d
       -0.034856603 0.079814814 0.06567915 0.080366835
000100 b5 22 c8 bd ff ad c8 bc 36 bf d3 3d 06 64 93 bd
       -0.09772245 -0.02449703 0.10339205 -0.07196812
000110 64 92 f8 bc 12 64 5a 3c 6e a4 9d 3d 19 a3 54 3d
       -0.030343242 0.013329523 0.07697378 0.051913355
000120 96 59 9d bc ad 88 c6 ba 10 49 4c bd 99 4f 41 3d
       -0.019207757 -0.0015146934 -0.049874365 0.04719505
000130 9f 58 84 3d 0a ea 10 3c 02 b3 11 3c 71 23 3d bd
       0.06462216 0.008844862 0.008892776 -0.046176378
000140 c2 1e eb bd db fa 76 bd b1 16 7a bd cc df 1c bd
       -0.11480476 -0.06029783 -0.061056796 -0.038299367
000150 17 69 56 bd 4c 15 d9 bd 48 4d af 3d 1f a3 f7 3d
       -0.052346315 -0.10599765 0.08559662 0.1209166
000160 fb 23 07 be 47 b1 d4 bd 52 a6 61 3d e0 bb f1 3d
       -0.13197319 -0.103853755 0.055090256 0.118034124
000170 92 86 ac bc 4b 63 a8 bd f0 a3 8b 3c 44 68 3f bd
       -0.021060262 -0.08222064 0.017045945 -0.046730295
000180 45 90 ad 3d ad ec 81 bc c9 c1 ce bc ae ce 64 bd
       0.08474783 -0.015859926 -0.025238888 -0.055861168
000190 45 f1 fd bd 23 ee 81 3d 8a 84 6c 3c dd 73 64 bb
       -0.12399534 0.06344249 0.014435897 -0.00348591
0001a0 dd 47 02 3d 13 6e 80 3c d6 5c e3 bd 2d 24 cf 3d
       0.031806815 0.015677487 -0.111016914 0.10114322
0001b0 c4 2a d1 3e 50 fe 3f bd 34 2a 47 bd 76 90 f7 3b
       0.4085294 -0.04687339 -0.048624232 0.007555063
0001c0 95 a4 1b 3e 8c 24 f6 3d e8 ae 9d bd 08 26 08 3e
       0.15199502 0.120186895 -0.07699376 0.13295758
0001d0 5f b8 87 3c 96 72 89 3d c4 a8 d8 bd 96 2a 54 bd
       0.016567407 0.06711309 -0.105790645 -0.051798426
0001e0 a4 51 88 bd b2 5c 59 3b 90 f0 91 3d f6 80 d3 3c
       -0.06656197 0.0033166823 0.07125962 0.02581833
0001f0 e1 0e eb 3c d1 34 29 3d 2f 4d f7 3a 47 07 99 bd
       0.028693618 0.041310135 0.0018867607 -0.07472091
000200 11 3d 9e bd d3 58 50 3d ad ee ed bc 9e d4 79 bd
       -0.07726491 0.05086596 -0.029044474 -0.060993783
000210 96 94 9b bd 0c ca 0a bd 33 7d a4 bd 05 1d e2 bd
       -0.075967 -0.033884093 -0.08031692 -0.11040691
000220 fd 66 62 3d 69 7c c2 bd 20 40 bd 3d 81 65 ad bd
       0.055274 -0.094963856 0.092407465 -0.08466626
000230 03 5e ce 3b d4 73 10 3d 1a 5c ac bd ff 10 a2 3d
       0.006297828 0.035266712 -0.084160045 0.07913398
000240 16 36 d6 bb 05 98 d3 bc 91 56 a6 bc bf a7 ed bc
       -0.0065372093 -0.025829324 -0.02030495 -0.029010652
000250 c5 84 88 bd b4 72 57 3d d3 69 65 bd af ea 27 bc
       -0.06665949 0.052599624 -0.056009125 -0.010248824
000260 e5 ff e6 3d 5f 74 2f 3d e0 55 51 bd f6 4e e2 bd
       0.11279277 0.04283559 -0.051107287 -0.11050217
000270 e0 4f 84 bd f0 ee 0c be 15 d9 10 3e bc 26 28 3d
       -0.064605474 -0.13763022 0.1414531 0.041052565
000280 8d fa eb 3c 52 87 3f 3e fe fb 93 3d a0 40 9d 3d
       0.028805995 0.18703964 0.07225798 0.07678342
000290 91 a0 88 3c cc 52 38 bd c1 62 3e bd 51 b6 8f bd
       0.016678127 -0.045000836 -0.046480898 -0.07017196
0002a0 44 ab 08 3d 49 2a b6 bd 87 8c 80 bd 13 c9 ab bb
       0.033366457 -0.08894784 -0.062768035 -0.005242476
0002b0 03 7f 48 3d 3a 51 8a 3c 2f ee c5 3d 52 89 bd bd
       0.048949253 0.016884435 0.096645705 -0.092547074
0002c0 9d 73 27 be 5b 75 b4 bd 9b 2c ed 3d 93 25 a8 bd
       -0.16352697 -0.08811446 0.115807734 -0.08210292
0002d0 a3 4c eb bd 8d d1 25 3e 37 f2 6a 3b fc 87 a4 bd
       -0.11489227 0.16193219 0.0035849938 -0.080337495
0002e0 7c 19 83 3c 26 7b e5 3b ac 16 88 3d a7 7d f3 bc
       0.016003363 0.007003206 0.06644949 -0.029723002
0002f0 1a 08 1e bc f0 5f be bc 8b 4b 0e 3c e6 d0 2a 3d
       -0.009645486 -0.023239106 0.008685003 0.041703127
000300 4f ea bd bd ca 3b 2b 3d 3a 0f 15 3d ae 36 fd 3a
       -0.092732064 0.041805066 0.036391474 0.0019318664
000310 43 b4 9a bd 13 2a 34 3d 1e 96 9c bd e8 df c9 bd
       -0.075539134 0.043985438 -0.0764582 -0.0985716
000320 a4 78 81 3d 83 34 be bd 6f d2 1d be a5 23 4b 3d
       0.063218385 -0.092873596 -0.15412305 0.04959454
000330 76 37 b0 bd 2d 24 a6 bd 34 bd d1 bd ee 41 61 3c
       -0.08604328 -0.08112369 -0.10241166 0.013748629
000340 8b 99 e5 bc 11 58 b4 bd af 3c 88 bd 3b e9 b3 3b
       -0.028027317 -0.0880586 -0.066521995 0.0054904497
000350 87 89 8e bd fc b6 bf bd 61 77 2b 3e d8 5b 96 bb
       -0.06959825 -0.093610734 0.16744758 -0.0045885853
000360 31 5c 54 bc 33 96 b1 bd 3e 17 8c 3d 0c 0e 3a 3d
       -0.012961433 -0.08671226 0.068403706 0.045423552
000370 3a a9 ab 3c d9 96 b8 3c 26 4f 2f bc 9d 25 35 3d
       0.020954717 0.022532867 -0.010700023 0.044225324
000380 40 ef e6 3d 51 8b 61 3d 87 7b 1e bd 0e 72 bd bd
       0.11276102 0.055064503 -0.038692024 -0.0925027
000390 ae 9f 2b 3d f6 76 04 3d 64 97 07 be 02 14 db bd
       0.04190033 0.032340012 -0.13241345 -0.106971756
0003a0 16 87 72 3c 8d 57 92 bc c9 86 4c be 17 d7 1c bb
       0.014802715 -0.017864013 -0.19973291 -0.0023931914
0003b0 5d 4a 60 bd d3 96 04 bd 75 2b 53 bd a3 40 eb bd
       -0.05475842 -0.0323704 -0.051555116 -0.11486938
0003c0 50 e3 86 bd 4e ce 26 be a4 79 1b 3e 9e 37 37 be
       -0.06586325 -0.16289636 0.15183121 -0.1789231
0003d0 50 b4 2c 3e e3 cc 79 3d d0 67 bf bd f9 97 b5 3d
       0.16865659 0.06098641 -0.093459725 0.08866877
0003e0 5b 98 f0 3c 49 f0 f7 3c 40 98 96 bc 81 28 31 3d
       0.029369524 0.030265944 -0.018383145 0.04325152
0003f0 35 a7 f4 3d 6b 45 ce 3d 77 0e 8c 3d 9d 26 95 3c
       0.11945955 0.10071834 0.068386964 0.018206889

layer1.bias f4 [128]
000000 d4 19 1c bd 31 51 0e 3d 21 5c 56 bc 08 4a 2b 3d
       -0.03811057 0.0347454 -0.013083489 0.04181865
000010 c1 fa 34 3e 94 f6 c5 3d cb 7b 07 3b 8d a9 82 3d
       0.1767378 0.09666172 0.0020673152 0.063799955
000020 d5 01 28 3c 97 60 80 bc 2f 87 c0 bd fb 84 82 ba
       0.010254343 -0.015671058 -0.09400784 -0.0009957844
000030 d1 3e 20 3e e8 45 df 3d d4 cc 96 bd fa fd ef 3d
       0.15648963 0.109020054 -0.073632866 0.11718364
000040 de a6 93 3d 2d 94 84 3d 7c 49 7c bc d3 e7 98 bd
       0.07209562 0.06473575 -0.015398379 -0.07466092
000050 05 44 c9 bd a9 23 52 bd 9e fa 11 3e 3c 93 a6 3d
       -0.09827427 -0.05130354 0.14255759 0.081335515
000060 25 c7 36 bc e4 2f 17 3d 79 66 89 3d 09 13 d5 bc
       -0.011155878 0.036910906 0.06708998 -0.026010053
000070 9d 97 c9 3d d0 a6 0f 3d 72 69 11 3e ab 45 cd 3d
       0.09843371 0.035071194 0.1420038 0.10023054
000080 8a 85 ae ba cd 0b c0 3b f1 0e 46 bd 53 a7 c9 bd
       -0.0013314944 0.0058607818 -0.048354093 -0.09846368
000090 5b bc 45 3c 53 cf 84 3d 70 35 92 3d 98 1d 23 bd
       0.012068833 0.064848565 0.07139099 -0.039823145
0000a0 5b 90 88 3d cd fa c9 3d 1f 34 eb bb 80 34 45 3d
       0.066681586 0.098622896 -0.007177844 0.04814577
0000b0 b7 1e 9e bd 31 40 9a 3d 53 7a 94 3c 44 24 fc 3d
       -0.07720702 0.07531775 0.018124735 0.123116046
0000c0 cb 6d 5b 3b 5c 42 c6 bb 4d 00 9b 3d cd 4f ac 3d
       0.003348219 -0.006050391 0.07568417 0.08413658
0000d0 99 6b 8e 3d 04 f3 9d 3c e2 13 7f bd 02 a5 45 bd
       0.069541164 0.019280918 -0.06227482 -0.048253067
0000e0 79 1d 20 bd af 33 dc bc 93 c9 cb 3c 16 da d0 3d
       -0.039090607 -0.026880113 0.024876392 0.101978466
0000f0 37 d4 04 3d 45 fc a9 3d 8d 2f 31 3e 72 8d 7f 3d
       0.032428946 0.0830007 0.17303295 0.062390752
000100 8c df 5a bd 57 e5 cc bd 5d 6d ce 3d bb 1a 61 3d
       -0.053435847 -0.100046806 0.10079453 0.054957133
000110 b8 3f 9f 3d c0 4a ce 3d 71 d0 2c 3d 80 07 44 3d
       0.07775825 0.10072851 0.042190973 0.047858715
000120 87 ab 86 bd cd e0 1a 3d e9 9a 1e 3c 61 03 91 3c
       -0.06575685 0.037812043 0.009680488 0.017701807
000130 54 7e c4 3d 88 60 15 3c 93 f0 f4 3d 15 b7 09 3d
       0.09594408 0.009117253 0.119599484 0.033621866
000140 45 fb c7 bc 59 5f 90 3d 9b e5 24 bb 39 4f 77 bd
       -0.024411807 0.07049436 -0.002516127 -0.060378287
000150 8c c2 3c 3c 81 5b 6f 3d c3 9c 4a 3d e2 bc 01 3d
       0.011520993 0.058436874 0.049465906 0.031674273
000160 81 75 8b 3d 74 7e 1d bc f5 88 0e 3d 04 2a 95 3d
       0.068095215 -0.009612668 0.03479858 0.072834045
000170 54 60 b0 3d 99 07 87 bd de f9 f9 bc 58 38 c4 3d
       0.08612123 -0.06593246 -0.030514654 0.09581059
000180 80 82 02 bd 70 ee f7 3d 39 a3 f7 3c 1a e0 7d bc
       -0.031862736 0.12106025 0.030229198 -0.0154953245
000190 94 97 35 3d b5 42 8e bd d7 42 b1 3c b8 73 c0 3c
       0.04433401 -0.06946317 0.021638317 0.023492679
0001a0 f1 18 75 3d 8b fe d5 3b 65 3c 1b 3e 1f df b9 3c
       0.05983824 0.006530588 0.15159757 0.0226894
0001b0 c1 18 10 bd 23 5e a4 3d 67 82 78 3d 93 c3 77 bd
       -0.035179857 0.08025768 0.060671236 -0.06048925
0001c0 03 bd 60 3d 3c dc db 3d 06 8a f5 3c ea c3 cd 3c
       0.054867756 0.10735366 0.029973041 0.025117833
0001d0 60 4b a4 bd c1 7c 31 bd 2c 1f 88 bc 1c 7e b7 3d
       -0.08022189 -0.043331865 -0.016616426 0.089596
0001e0 3d f5 37 3c a8 72 91 bc 13 de 2a bd f5 07 b8 3d
       0.011227903 -0.017754868 -0.041715693 0.08985893
0001f0 81 b1 ef 3c b9 0b 4a 3d a0 a3 15 3d 2d 48 f0 3d
       0.029259445 0.049327586 0.036532998 0.117325164

layer2.weight f4 [7, 128]
000000 f1 cd b7 3c b4 aa eb bd 35 0b 25 be ef d6 c9 bd
       0.022437068 -0.115071684 -0.16117556 -0.098554485
000010 8d d7 cf bd 8c 6d 10 bc dd 93 0e be 9a d9 05 be
       -0.10148535 -0.0088151805 -0.13923593 -0.1307129
000020 69 d7 8b bd 8d 0d eb bd ca 20 99 bc a5 a1 79 3d
       -0.068281956 -0.11477194 -0.018692393 0.060945172
000030 07 c1 12 be 8d fb fe bd 5a e6 a4 bd 64 a3 0c be
       -0.14331447 -0.12450323 -0.080517486 -0.13734204
000040 97 00 a6 bc 3c a2 e0 bd ce 41 20 be f7 42 f6 bd
       -0.020263953 -0.10968444 -0.15650102 -0.12024491
000050 d9 7a 87 bd ea 42 80 bd e3 55 21 be ef a7 5a bd
       -0.06615228 -0.06262763 -0.1575542 -0.05338281
000060 e4 0c 75 bd 1c 05 91 bc 4a 1c 15 be d4 67 97 bd
       -0.059826747 -0.017702632 -0.14561573 -0.073928505
000070 ec 43 b0 bd 6f aa 49 bc b6 98 a2 bd b7 b1 33 be
       -0.08606705 -0.012308701 -0.079392835 -0.17548262
000080 a5 83 a5 bd e8 8b 30 bd c6 14 ac bd 16 9e 7e bd
       -0.0808175 -0.043102175 -0.084024 -0.06216248
000090 ab e9 95 bd 7c 16 9b bd d3 d1 f3 bd 12 e2 50 3d
       -0.07319959 -0.07572648 -0.11905255 0.050996847
0000a0 be 08 10 be 3e 0d 01 bc ca 64 12 3c 93 61 25 be
       -0.14065835 -0.007876692 0.008935163 -0.16150503
0000b0 4d 41 24 3c 75 eb 8b bd 2f 34 13 bc 2d 0b 94 bd
       0.010025335 -0.06832019 -0.0089846095 -0.07228694
0000c0 7d 29 32 bd 7a 87 5d bd 07 0a 24 be 66 18 9f bd
       -0.043496598 -0.05408428 -0.1601945 -0.077683255
0000d0 cf 98 a1 bd 0a 51 c5 bd 22 21 db bc 19 ad 14 be
       -0.07890474 -0.096345976 -0.026749197 -0.14519157
0000e0 2c b5 a7 bd fd bf a3 bd ad b5 05 be df 35 69 bc
       -0.08188853 -0.07995603 -0.13057585 -0.014234035
0000f0 f6 e6 7a bd 0b 0d 05 bd df 8e 9c bd 30 98 5d bb
       -0.061255418 -0.032483142 -0.07644438 -0.0033812635
000100 e2 bb 1d be ae 47 92 3d 00 0a 28 bd 7d 4c 3c be
       -0.15403703 0.07142578 -0.04102516 -0.18388553
000110 71 75 90 bc 54 22 be bc 24 ab ec bd 26 4a 98 bb
       -0.017634125 -0.023209728 -0.1155608 -0.004647511
000120 0b c6 a9 bd 2e 5c 11 3a ae 9f 09 be 9b dd 9c bd
       -0.08289727 0.0005545047 -0.13439819 -0.076594554
000130 52 08 31 be 1c 85 71 3d a7 ba b0 bd 61 af 86 3d
       -0.1728833 0.058964834 -0.08629351 0.065764196
000140 0e 14 9a bd 32 d3 32 be 80 45 67 bd 4c 28 04 be
       -0.075233564 -0.17463377 -0.056462765 -0.12905997
000150 1b 6b 29 be a5 41 99 bd 5b 93 39 be 45 36 21 bd
       -0.16544764 -0.07483224 -0.18122618 -0.039358396
000160 44 6d d1 bd f8 22 2c be f8 24 b3 bd c5 17 fd bd
       -0.10225919 -0.16810215 -0.087472856 -0.12358049
000170 dc c2 30 bd 04 86 d6 bd 47 4c cb bd aa 96 d7 3c
       -0.043154582 -0.1047478 -0.09926658 0.02631696
000180 d8 30 7a 3d b9 d3 fa bd 99 54 19 bc b4 26 0a bd
       0.061081737 -0.12247414 -0.009358549 -0.033728316
000190 74 25 02 be ab b0 04 bd 01 13 07 be dd 83 81 bd
       -0.127096 -0.032395046 -0.13190843 -0.06323979
0001a0 56 34 55 be 64 f0 89 bd 62 e6 3b be fe 35 db bc
       -0.20820746 -0.06735304 -0.18349603 -0.026759144
0001b0 0d a1 0c be 3c d8 2c be 39 02 67 bc 7f 75 eb 3c
       -0.13733311 -0.16879362 -0.014099651 0.02874255
0001c0 5f ce 85 bd 91 b0 1d bd e9 7a c4 bd 96 b2 2a be
       -0.06533503 -0.038498465 -0.09593756 -0.16669688
0001d0 46 d7 9e bd 55 3a 8a bd 3d fa f4 bd 21 5d 6e bd
       -0.07755904 -0.06749407 -0.11961792 -0.058194283
0001e0 49 f7 45 be fb 82 81 3d e0 5a 06 3d 66 90 0d bd
       -0.19332613 0.06323811 0.03280151 -0.034561537
0001f0 7e c7 e0 bd ad f2 b4 bd 28 45 b0 bc 06 f3 08 be
       -0.1097555 -0.08835349 -0.021517351 -0.13373956
000200 4e 64 37 3e b1 83 84 bb ca af a3 bd 49 7b 1a 3d
       0.17909357 -0.004044019 -0.079925135 0.03771523
000210 16 49 2f 3c 58 ef 05 3d 35 94 0d be 8d 04 1e 3e
       0.010698577 0.03269896 -0.13826068 0.15431423
000220 d0 07 52 3d 8a 45 b0 3c d4 89 a4 bd 43 21 8c bd
       0.05127698 0.021517534 -0.08034101 -0.06842282
000230 68 0a c6 bd 18 ab 71 3b 23 51 5d 3e f4 5d 0c be
       -0.096699536 0.0036875661 0.21612982 -0.13707715
000240 d5 c1 e2 bc 61 95 a2 bd fb 32 6f 3d aa 5a 86 3d
       -0.027680317 -0.07938648 0.05839823 0.065602615
000250 01 fd ad 3d be 93 77 3e 8e 44 f8 3b 5c ee 80 3d
       0.08495522 0.24177453 0.0075765317 0.062954634
000260 bf 06 c2 bd 76 c3 90 bd e0 04 50 bd c5 af 9b 3d
       -0.09473943 -0.07068531 -0.0507859 0.07601885
000270 52 79 e7 bd e4 f5 c1 bd a2 ae 18 be e0 00 0e bb
       -0.11302437 -0.09470728 -0.14910367 -0.0021668002
000280 0f d1 e4 bd f3 1a 8a 3d bb de 20 3c bd db cd bb
       -0.11172687 0.067434214 0.009818728 -0.0062822984
000290 d2 c4 be bd 99 46 f5 bd cc af c6 bd 5e 5b 11 be
       -0.09314884 -0.11976356 -0.09701499 -0.1419501
0002a0 80 e3 32 be ad d8 ec 3d da 41 b3 bd bc ba e9 3d
       -0.17469597 0.11564765 -0.087527946 0.1141257
0002b0 fb 6f 8f 3d 97 98 cd bc 5d 61 1e be a5 c6 66 bb
       0.070037805 -0.025097175 -0.15466829 -0.0035213616
0002c0 66 99 ed 3d 77 3b 38 3d 64 2e bc 3d fd 09 3b bd
       0.11601524 0.044978585 0.09188536 -0.045663822
0002d0 e9 f6 cd 3d af c5 85 bd 8d 4f 0f bd 85 85 16 3e
       0.1005686 -0.06531846 -0.034987975 0.14699371
0002e0 f8 57 40 3d 9a 4c e9 3d 71 61 52 3d be 56 3e 3d
       0.046958894 0.11391564 0.05136246 0.046469443
0002f0 f0 92 d1 3d ce d6 92 bc 70 17 92 bc e6 25 54 3e
       0.10233104 -0.017924692 -0.017833441 0.20717582
000300 0e 1a b4 3d e1 64 08 bd c3 56 e2 bd 64 f9 02 be
       0.08794032 -0.03329933 -0.11051705 -0.12790447
000310 57 d0 37 bd 26 12 a0 3d 95 e3 f3 bd e4 b7 e4 bd
       -0.044876423 0.078159615 -0.11908642 -0.11167887
000320 27 2a 28 be 45 f0 61 be 59 f6 b7 bd 21 6e ff bd
       -0.1642233 -0.22064312 -0.08982534 -0.12472177
000330 b3 79 a7 3d 95 1a 38 3d 30 b8 84 3c 3e 07 14 3b
       0.08177509 0.044947226 0.016201109 0.0022587324
000340 ea d5 53 3d 99 92 b3 bc fa dd 2e 3e 35 d7 d6 3d
       0.051717676 -0.02192049 0.17076865 0.10490266
000350 0f 5f c2 3d a9 72 00 bb 25 a7 57 3b 85 26 be 3d
       0.09490787 -0.0019599593 0.0032906022 0.09284691
000360 54 6a 34 be 83 a4 f5 3d 13 24 68 3c 8e 39 1c be
       -0.17618686 0.11994269 0.014168757 -0.1525633
000370 28 1f e0 3c d9 84 c0 bd 69 2d 22 3e 15 01 57 3e
       0.027358606 -0.09400339 0.15837635 0.20996507
000380 c6 9b b7 3d b7 fd 70 bd 52 e8 5f be 6a f6 d0 3d
       0.08965258 -0.05883571 -0.21865967 0.1020325
000390 7c cb 5b 3e 80 67 87 3d 04 ff 80 bd c1 2c 82 3d
       0.21464342 0.06611538 -0.0629864 0.063561924
0003a0 73 b6 4d 3e 7a fa 91 3d 5e 1a e3 bd 33 15 ca 3d
       0.2008913 0.07127853 -0.110890135 0.09867325
0003b0 48 82 15 be c1 2d 71 bd 3a cb 13 be 0b 6d 9a bd
       -0.1460048 -0.058881525 -0.14432994 -0.075403295
0003c0 cf c9 da 3d 3e 53 d8 3d 07 1d 17 3d 68 5f 1a 3c
       0.10683023 0.10562752 0.036892917 0.009422161
0003d0 73 79 58 3d 5e f5 93 bc ec d7 8d 3d d1 ed 03 3e
       0.052850198 -0.018061336 0.069259495 0.12883689
0003e0 01 07 fd 3c b5 66 b9 bc 10 25 4a 3d ae f8 fe bc
       0.030887129 -0.022631982 0.04935175 -0.03112444
0003f0 f0 60 a1 bd 7a 3a 72 3e 9e 0f 6b 3d 5b 8f 11 be
       -0.078798175 0.2365512 0.05738794 -0.14214842

layer2.bias f4 [7]
000000 7d a3 80 bd 74 89 8f 3d 21 62 4c bd 1d 2e ed 3d
       -0.06281183 0.07008639 -0.04989827 0.11581061
000010 89 9e 3e 3d bc 20 dd bd c4 c7 17 be
       0.04653791 -0.10797259 -0.14822298
