saved_models/FCPolicyVsRandom10k.pt (torch, 70351 bytes, 4 tensors)

layer1.weight f4 [128, 126]
-0.07483362 -0.045767635 -0.042718846 -0.03609545 -0.007603763 -0.013811833 0.04786345 0.09071353
0.04206421 -0.11663235 0.00072617095 0.031635474 0.0705006 0.085203275 0.07460363 0.00042093845
0.045363855 -0.08847038 -0.06319485 0.07651818 -0.033101387 0.09910096 -0.018510168 -0.12613685
0.08143109 -0.047412667 -0.091682374 0.06056877 0.007464461 0.1260063 0.013620436 0.11124018
0.056300182 0.043380223 0.07338666 -0.050590992 -0.0049620997 -0.049670853 -0.013007652 0.0073311836
0.05685988 0.033615585 -0.05206784 -0.11994109 0.041686155 0.08679973 -0.19083966 0.058349364
0.00019216965 -0.031994194 0.30809736 0.017479885 0.05478508 0.042638164 0.0872598 -0.04752093
-0.028545003 0.045025293 0.018027188 -0.0039255656 -0.033109747 0.0798526 0.064037845 0.08210267
-0.09806496 -0.023716738 0.08125375 -0.05162411 -0.0025861354 0.011374525 0.07693919 0.06234864
-0.019207757 0.011128743 -0.05935127 0.05197168 0.07706076 -0.0006806056 0.0105714975 -0.046557248
-0.11255221 -0.058553938 -0.06096483 -0.039990902 -0.050629005 -0.10552491 0.08671595 0.10006276
-0.11743548 -0.09714319 0.051389527 0.13089374 -0.021880656 -0.08222064 0.007568895 -0.034086972
0.08954553 -0.025385255 -0.012800082 -0.054072384 -0.12386187 0.06192587 0.016189344 -0.0046433224
0.031798515 0.017278153 -0.109512486 0.104030155 0.40073967 -0.041775152 -0.051433034 -0.006661825
0.15854217 0.13160518 -0.07699376 0.14560089 0.007090315 0.07180961 -0.09314702 -0.06127533
-0.06522881 0.0033115968 0.079779685 0.02754828 0.028267652 0.042528436 0.009772722 -0.07472091
-0.07726491 0.058544595 -0.025796665 -0.056379598 -0.068287626 -0.029201513 -0.07740671 -0.11040691
0.06321137 -0.09606423 0.08937534 -0.08766498 0.018884687 0.043259747 -0.08477273 0.07395262
0.0013487337 -0.025829324 -0.02030495 -0.021108525 -0.06599603 0.050252303 -0.047892045 -0.006791974
0.10844545 0.048807606 -0.048755243 -0.09572633 -0.064605474 -0.13873047 0.14939153 0.0400666
0.03808785 0.19143566 0.08025641 0.0726364 0.015375148 -0.037115894 -0.046480898 -0.06985643
0.04128176 -0.09187936 -0.06379829 0.010321589 0.046796728 -0.004526496 0.1031671 -0.080842204
-0.16459534 -0.08811446 0.12374501 -0.08320329 -0.1199318 0.16495147 0.016649362 -0.07235094
0.01432469 0.0043094857 0.07432652 -0.029646862 -0.0081828525 -0.015305771 0.007874165 0.039159913
-0.074400194 0.04622747 0.020374902 0.008199134 -0.07793014 0.054843493 -0.0764582 -0.099671975
0.07115566 -0.08762049 -0.15401736 0.056931797 -0.07807421 -0.083280124 -0.10223998 0.02162033
-0.0279145 -0.08658257 -0.058590084 0.0029688447 -0.06914603 -0.08121214 0.15726131 0.0054692226
-0.0028141271 -0.09083527 0.06786772 0.045423552 0.02889199 0.021432357 -0.005479914 0.05156258
0.11287423 0.06302979 -0.039031338 -0.0939961 0.04978136 0.032784786 -0.13240993 -0.09894799
0.011396836 -0.02002999 -0.20858788 0.013074243 -0.05786334 -0.017238248 -0.0577317 -0.12117786
-0.06586325 -0.1639966 0.15976964 -0.1789231 0.16755635 0.06892346 -0.08579883 0.090291314
0.03392199 0.03814902 -0.018803315 0.043429736 0.11941101 0.10071834 0.06870023 0.018242307
00000000: 5e42 99bd d876 3bbd f5f9 2ebd d3d8 13bd
00000010: fd28 f9bb 074b 62bc 770c 443d 04c8 b93d
00000020: 854b 2c3d f1dc eebd 825c 3e3a 3394 013d
00000030: 9e62 903d 0e7f ae3d cac9 983d 67b1 dc39
00000040: 73cf 393d f52f b5bd 4d6c 81bd 90b5 9c3d
00000050: 5295 07bd 72f5 ca3d a3a2 97bc 052a 01be
00000060: 58c5 a63d c933 42bd f8c3 bbbd f516 783d
00000070: 7098 f43b cc07 013e 4028 5f3c e4d1 e33d
00000080: 059b 663d 76af 313d bf4b 963d 8038 4fbd
00000090: 1c99 a2bb aa73 4bbd 0c1e 55bc 6d3a f03b
000000a0: e8e5 683d 7fb0 093d 1645 55bd ada3 f5bd
000000b0: 1abf 2a3d 0fc4 b13d 796b 43be beff 6e3d
000000c0: 2681 4939 580c 03bd f0be 9d3e fa31 8f3c
000000d0: 5266 603d 5ba5 2e3d 44b5 b23d 4fa5 42bd
000000e0: 36d7 e9bc 716c 383d c1ad 933c 08a2 80bb
000000f0: 169e 07bd c389 a33d 4626 833d 7225 a83d
00000100: 48d6 c8bd 9b49 c2bc 5e68 a63d ce73 53bd
00000110: 277c 29bb 375c 3a3c 4b92 9d3d 4a61 7f3d
00000120: 9659 9dbc 5555 363c 511a 73bd 42e0 543d
00000130: 08d2 9d3d ab6a 32ba 1334 2d3c d0b2 3ebd
00000140: c681 e6bd 41d6 6fbd 42b6 79bd 80cd 23bd
00000150: 5c60 4fbd 721d d8bd 2298 b13d b4ed cc3d
00000160: 0382 f0bd 02f3 c6bd d37d 523d 0209 063e
00000170: 103f b3bc 4b63 a8bd 7e04 f83b c89e 0bbd
00000180: a663 b73d bdf4 cfbc 6fb7 51bc 017b 5dbd
00000190: 4bab fdbd fba5 7d3d 849f 843c 0327 98bb
000001a0: 293f 023d ea8a 8d3c 1548 e0bd c30d d53d
000001b0: c02d cd3e 6c1c 2bbd 72ab 52bd 704b dabb
000001c0: e158 223e 82c3 063e e8ae 9dbd 6618 153e
000001d0: e055 e83b eb10 933d ddc3 bebd d7fb 7abd
000001e0: af96 85bd 6007 593b 8863 a33d eeac e13c
000001f0: 9091 e73c 4c32 2e3d c41d 203c 4707 99bd
00000200: 113d 9ebd 75cc 6f3d 8753 d3bc 4bee 66bd
00000210: 62da 8bbd 0338 efbc 6987 9ebd 051d e2bd
00000220: f674 813d 53bd c4bd 6b0a b73d b289 b3bd
00000230: 0fb4 9a3c 2231 313d 539d adbd 7974 973d
00000240: fec7 b03a 0598 d3bc 9156 a6bc c9eb acbc
00000250: ed28 87bd 5cd5 4d3d 732a 44bd 358f debb
00000260: a618 de3d 7cea 473d 94b3 47bd 2b0c c4bd
00000270: e04f 84bd 5c0f 0ebe 18fa 183e e01c 243d
00000280: 0102 1c3d b607 443e 795d a43d 65c2 943d
00000290: 0be8 7b3c d606 18bd c162 3ebd e310 8fbd
000002a0: 1017 293d 3f2b bcbd aea8 82bd e21b 293c
000002b0: edad 3f3d 0053 94bb 4649 d33d 9990 a5bd
000002c0: ae8b 28be 5b75 b4bd 066e fd3d 7d66 aabd
000002d0: ce9e f5bd 0ae9 283e 3e64 883c bb2c 94bd
000002e0: 1bb2 6a3c 9636 8d3b 8138 983d fadd f2bc
000002f0: 5f11 06bc 0ec5 7abc a402 013c 2566 203d
00000300: 215f 98bd 0459 3d3d 44e9 a63c a955 063c
00000310: d699 9fbd 92a3 603d 1e96 9cbd d220 ccbd
00000320: 0fba 913d 5f72 b3bd bab6 1dbe 5131 693d
00000330: 5fe5 9fbd c58e aabd 3263 d1bd 1e1d b13c
00000340: f3ac e4bc 3452 b1bd 28fc 6fbd f390 423b
00000350: 6f9c 8dbd 8d52 a6bd 1c09 213e 2a37 b33b
00000360: 386d 38bb d807 babd 3bfe 8a3d 0c0e 3a3d
00000370: e5ae ec3c e992 af3c da90 b3bb 4933 533d
00000380: 9b2a e73d c315 813d 53df 1fbd 0781 c0bd
00000390: 8ae7 4b3d 5749 063d 7896 07be 3ea5 cabd
000003a0: cbb9 3a3c ef15 a4bc 1098 55be 5a35 563c
000003b0: 1c02 6dbd 3a37 8dbc 1378 6cbd 192c f8bd
000003c0: 50e3 86bd baee 27be a79a 233e 9e37 37be
000003d0: e493 2b3e be27 8d3d 4cb7 afbd a7ea b83d
000003e0: c9f1 0a3d 2642 1c3d 6909 9abc 61e3 313d
000003f0: c28d f43d 6b45 ce3d b5b2 8c3d e470 953c

layer1.bias f4 [128]
-0.036370873 0.04263123 -0.013132318 0.04445433 0.18122493 0.09886186 0.003975056 0.064180456
0.0052956664 -0.018627997 -0.09432488 -0.001310734 0.15870352 0.111275196 -0.08369866 0.12245121
0.07290436 0.06669164 -0.015935078 -0.077958524 -0.09644284 -0.057155512 0.14531809 0.082283676
-0.009449208 0.039136257 0.06422568 -0.025698401 0.085665 0.037891373 0.14546476 0.09785724
0.004701774 0.0067113307 -0.051461246 -0.09846368 0.021527646 0.068636805 0.077322155 -0.03362954
0.06846779 0.08832525 -0.01920566 0.036182843 -0.07662757 0.08400843 0.019511672 0.12218494
-0.0010693701 -0.009955122 0.07649076 0.08440492 0.06472461 0.024592666 -0.053931314 -0.060753968
-0.032909263 -0.03696991 0.026601635 0.09793275 0.03260359 0.091818295 0.17676958 0.056778453
-0.053200454 -0.100046806 0.1050668 0.056243237 0.07929139 0.10148439 0.044730734 0.05083365
-0.06588732 0.035410795 0.011319821 0.020700866 0.09275458 0.007976938 0.12210882 0.033816855
-0.034280356 0.07565909 -0.014649133 -0.065750875 0.005670851 0.058436874 0.051887803 0.03287515
0.07019789 -0.019849785 0.037096683 0.07075991 0.088613294 -0.064704105 -0.03849991 0.09030461
-0.031862736 0.12567052 0.028153803 -0.018580481 0.029565211 -0.07190141 0.019183552 0.02406691
0.049091272 -0.0021238907 0.15446663 0.020444747 -0.032498002 0.0848794 0.062929876 -0.06856898
0.05339674 0.109123915 0.031075502 0.025211997 -0.07829114 -0.036847364 -0.025479179 0.08952669
0.0028085057 -0.020413794 -0.041715693 0.09221821 0.033844568 0.041622102 0.03633817 0.1221673
00000000: a0f9 14bd 169e 2e3d ef28 57bc be15 363d
00000010: 0793 393e 1678 ca3d 3041 823b 0b71 833d
00000020: 4587 ad3b be99 98bc 672d c1bd efcc abba
00000030: 2d83 223e 40e4 e33d 346a abbd b3c7 fa3d
00000040: e24e 953d a095 883d 488a 82bc b8a8 9fbd
00000050: d383 c5bd e61b 6abd 44ce 143e 5884 a83d
00000060: dad0 1abc 574d 203d c188 833d 7485 d2bc
00000070: 2271 af3d fc33 1b3d b7f4 143e 6069 c83d
00000080: 5711 9a3b b9ea db3b 07c9 52bd 53a7 c9bd
00000090: bf5a b03c 7491 8c3d 145b 9e3d 21bf 09bd
000000a0: d738 8c3d dee3 b43d 3055 9dbc 7634 143d
000000b0: eaee 9cbd 9d0c ac3d f1d6 9f3c 193c fa3d
000000c0: 1b2a 8cba cf1a 23bc 30a7 9c3d 7ddc ac3d
000000d0: 568e 843d 8f76 c93c 15e7 5cbd 27d9 78bd
000000e0: ddcb 06bd c36d 17bd aceb d93c f790 c83d
000000f0: 588b 053d 3b0b bc3d 1603 353e 8690 683d
00000100: b8e8 59bd 57e5 ccbd 432d d73d 4f5f 663d
00000110: 8663 a23d 0cd7 cf3d 9337 373d f236 503d
00000120: eeef 86bd e90a 113d c576 393c dd94 a93c
00000130: 1df6 bd3d b4b1 023c 3014 fa3d 8b83 0a3d
00000140: 8f69 0cbd 27f3 9a3d eb02 70bc 65a8 86bd
00000150: 8cd2 b93b 815b 6f3d 4e88 543d 18a8 063d
00000160: e9c3 8f3d 049c a2bc b1f2 173d 92ea 903d
00000170: e37a b53d 9683 84bd 15b2 1dbd a0f1 b83d
00000180: 8082 02bd c6af 003e cea2 e63c 1836 98bc
00000190: be32 f23c 0c41 93bd d326 9d3c f827 c53c
000001a0: ee13 493d f930 0bbb 802c 1e3e be7b a73c
000001b0: a01c 05bd 40d5 ad3d 61e1 803d e56d 8cbd
000001c0: 8ab6 5a3d 5c7c df3d 0d92 fe3c 6489 ce3c
000001d0: 1b57 a0bd 43ed 16bd b6b9 d0bc c559 b73d
000001e0: e80e 383b d43a a7bc 13de 2abd e7dc bc3d
000001f0: 9aa0 0a3d f07b 2a3d 55d7 143d d932 fa3d

layer2.weight f4 [7, 128]
0.02552076 -0.10765507 -0.15602523 -0.096845075 -0.09809906 -0.00959874 -0.13719854 -0.13092694
-0.058331322 -0.107166 -0.01900985 0.060628485 -0.14092328 -0.123292424 -0.07041958 -0.13649252
-0.016261427 -0.10583417 -0.1514206 -0.11389616 -0.06524525 -0.055012938 -0.1553308 -0.049102973
-0.056261174 -0.01488568 -0.13905896 -0.074239574 -0.08218568 -0.011305083 -0.07649966 -0.16827539
-0.078618184 -0.043420568 -0.07645546 -0.06216248 -0.06968971 -0.074091926 -0.11901005 0.050073925
-0.13947673 -0.0052630687 0.0076840143 -0.1576513 0.009693988 -0.061488584 -0.006193875 -0.06703819
-0.03600899 -0.04471245 -0.15715382 -0.07235034 -0.071447134 -0.09632954 -0.019658957 -0.14048044
-0.07380398 -0.07070925 -0.12755813 -0.0061358605 -0.05794566 -0.029463876 -0.073503345 -0.0020095245
-0.14607918 0.07142578 -0.041130256 -0.18154143 -0.013333954 -0.02411927 -0.11358568 -0.003313909
-0.07295469 0.0018365985 -0.13016129 -0.07462288 -0.16616191 0.059734326 -0.085450545 0.06546171
-0.068004474 -0.17160797 -0.05358527 -0.121015094 -0.15802701 -0.07483224 -0.1761587 -0.037625924
-0.1000365 -0.1604534 -0.08484813 -0.11681567 -0.042335637 -0.101310514 -0.0948397 0.03436224
0.061081737 -0.12296621 -0.008751857 -0.02587642 -0.11918159 -0.023498058 -0.12505265 -0.055654697
-0.17119724 -0.06138175 -0.18071538 -0.02037231 -0.13341412 -0.16565807 -0.012561203 0.028574202
-0.058695033 -0.035937097 -0.09219162 -0.16375282 -0.06989946 -0.06292527 -0.11303909 -0.053428657
-0.18576229 0.06267693 0.03280151 -0.032322045 -0.10688541 -0.07861786 -0.020909019 -0.13128878
0.17066325 -0.011718165 -0.082599424 0.044694483 0.009256742 0.030433035 -0.13474406 0.15522146
0.051833417 0.00903987 -0.08034101 -0.06842282 -0.094906524 0.0044294596 0.2002643 -0.12889187
-0.029987354 -0.07855095 0.045849476 0.051610418 0.08495522 0.22396612 0.0076888846 0.058376543
-0.09494535 -0.07159596 -0.04840005 0.07601885 -0.09445518 -0.08505496 -0.14136617 -0.012215238
-0.12327012 0.067434214 0.0027540314 -0.0062822984 -0.101735204 -0.10949849 -0.09017975 -0.14120954
-0.16056482 0.09897153 -0.07128457 0.09659968 0.070037805 -0.03393297 -0.15033263 -0.009073675
0.102309115 0.028790023 0.090205155 -0.048647508 0.08602011 -0.055055358 -0.04362263 0.13393083
0.034047406 0.09729144 0.050789073 0.032348525 0.09766038 -0.028759582 -0.017970018 0.19474861
0.07788963 -0.03329933 -0.10099404 -0.12161773 -0.04002002 0.07515858 -0.11434245 -0.100097135
-0.164132 -0.20357777 -0.08967255 -0.11955688 0.073601656 0.044947226 0.02053873 0.0022587324
0.037159164 -0.020693123 0.15687911 0.09139324 0.08371115 -0.0019599593 -0.00041105892 0.09319494
-0.17123526 0.10262851 0.01544873 -0.14978832 0.028707247 -0.09637929 0.14084606 0.20677598
0.08965258 -0.05073661 -0.20206034 0.09318056 0.19880122 0.056019336 -0.071978144 0.05155519
0.18972751 0.055308532 -0.10749313 0.09000778 -0.13825932 -0.05776681 -0.13049667 -0.059130568
0.09609492 0.10490924 0.032143522 0.005779636 0.046017952 -0.028363513 0.06286958 0.12332439
0.020694396 -0.026048198 0.04935175 -0.0244789 -0.0741206 0.22008066 0.05651471 -0.13502714
00000000: ea10 d13c 437a dcbd 14c5 1fbe b656 c6bd
00000010: 29e8 c8bd 0944 1dbc c67d 0cbe b611 06be
00000020: d3ec 6ebd d979 dbbd 8cba 9bbc 9355 783d
00000030: 314e 10be bd80 fcbd 2438 90bd b2c4 0bbe
00000040: af36 85bc 96bf d8bd 000e 1bbe 6442 e9bd
00000050: 4d9f 85bd 3f55 61bd 0a0f 1fbe 3320 49bd
00000060: 1e72 66bd 11e3 73bc 7965 0ebe eb0a 98bd
00000070: f750 a8bd f438 39bc dbab 9cbd 6250 2cbe
00000080: 9202 a1bd c4d9 31bd ae94 9cbd 169e 7ebd
00000090: 7bb9 8ebd 82bd 97bd 8bbb f3bd 511a 4d3d
000000a0: fdd2 0ebe d275 acbb 2fca fb3b 586f 21be
000000b0: 88d3 1e3c 74db 7bbd fdf5 cabb 524b 89bd
000000c0: 2a7e 13bd 6724 37bd eeec 20be 6a2c 94bd
000000d0: e052 92bd 6c48 c5bd d20b a1bc 1bda 0fbe
000000e0: 8b26 97bd 03d0 90bd 999e 02be 540f c9bb
000000f0: 6e58 6dbd 3a5e f1bc ec88 96bd 3ab2 03bb
00000100: c895 15be ae47 923d 3378 28bd ffe5 39be
00000110: a876 5abc c695 c5bc 9c9f e8bd 2b2e 59bb
00000120: 4569 95bd 05ba f03a 0049 05be e1d3 98bd
00000130: 5926 2abe fbab 743d b200 afbd ca10 863d
00000140: ee45 8bbd 00ba 2fbe 3a7c 5bbd c3d6 f7bd
00000150: d5d1 21be a541 99bd f262 34be a41d 1abd
00000160: f0df ccbd e54d 24be dbc4 adbd 0e3d efbd
00000170: 2268 2dbd e37b cfbd 513b c2bd 6cbf 0c3d
00000180: d830 7a3d b5d5 fbbd f363 0fbc c9fa d3bc
00000190: 7a15 f4bd 007f c0bc cd0d 00be 2ef6 63bd
000001a0: 544e 2fbe 6e6b 7bbd 740d 39be d5e3 a6bc
000001b0: b69d 08be 45a2 29be 81cd 4dbc 7214 ea3c
000001c0: 346a 70bd c732 13bd f6ce bcbd d2ae 27be
000001d0: 7327 8fbd f7de 80bd 0a81 e7bd 02d8 5abd
000001e0: 7838 3ebe c35c 803d e05a 063d 1f64 04bd
000001f0: bde6 dabd 6702 a1bd 6449 abbc 9170 06be
00000200: 59c2 2e3e 8cfd 3fbc e329 a9bd 9011 373d
00000210: 97a9 173c b34e f93c 59fa 09be 60f2 1e3e
00000220: 474f 543d f71b 143c d489 a4bd 4321 8cbd
00000230: 5a5e c2bd 0025 913b 1612 4d3e 3bfc 03be
00000240: 0aa8 f5bc 52df a0bd a9cc 3b3d 7265 533d
00000250: 01fd ad3d 6057 653e 0af3 fb3b 3e1c 6f3d
00000260: b572 c2bd e7a0 92bd 213f 46bd c5af 9b3d
00000270: b871 c1bd 4b31 aebd 4bc2 10be 6c22 48bc
00000280: 0b75 fcbd f31a 8a3d fb7c 343b bddb cdbb
00000290: 8c5a d0bd bf40 e0bd 29b0 b8bd 3c99 10be
000002a0: 1b6b 24be 96b1 ca3d a5fd 91bd 0ed6 c53d
000002b0: fb6f 8f3d 4cfd 0abd ccf0 19be c0a9 14bc
000002c0: 7187 d13d 0ed9 eb3c 7bbd b83d 9c42 47bd
000002d0: 502b b03d ba81 61bd a5ad 32bd 2a25 093e
000002e0: 4b75 0b3d bc40 c73d 3408 503d e37f 043d
000002f0: 2a02 c83d 3799 ebbc dc35 93bc 2e6c 473e
00000300: 9984 9f3d e164 08bd f7d5 cebd b712 f9bd
00000310: 08ec 23bd beec 993d 602c eabd baff ccbd
00000320: 3812 28be b176 50be 3ea6 b7bd 3dda f4bd
00000330: 77bc 963d 951a 383d d740 a83c 3e07 143b
00000340: 3534 183d a084 a9bc eba4 203e 612c bb3d
00000350: c070 ab3d a972 00bb 6583 d7b9 fddc be3d
00000360: 4c58 2fbe e52e d23d ac1c 7d3c 1c62 19be
00000370: 762b eb3c 8162 c5bd f339 103e 15bd 533e
00000380: c69b b73d 31d1 4fbd e8e8 4ebe 73d5 be3d
00000390: 8c92 4b3e 8874 653d 4769 93bd 892b 533d
000003a0: ee47 423e 338b 623d 5c25 dcbd 0056 b83d
000003b0: da93 0dbe e49c 6cbd eba0 05be e532 72bd
000003c0: 6acd c43d a8da d63d eda8 033d 1a63 bd3b
000003d0: 527d 3c3d 995a e8bc c4c1 803d 7f91 fc3d
000003e0: 4b87 a93c 0863 d5bc 1025 4a3d f987 c8bc
000003f0: 8bcc 97bd d35c 613e f87b 673d 8e44 0abe

layer2.bias f4 [7]
-0.058462508 0.068009295 -0.05065469 0.11581061 0.052387327 -0.10584938 -0.15466216
00000000: 6276 6fbd 7548 8b3d 4b7b 4fbd 1d2e ed3d
00000010: 1894 563d 8fc7 d8bd c25f 1ebe
