saved_models/FCPolicyInterrupt.pt (torch, 70351 bytes, 4 tensors)

layer1.weight f4 [128, 126]
0	0xbda5ee1d	-0.08102057
1	0xbd3b76d8	-0.045767635
2	0xbd2ef9f5	-0.042718846
3	0xbd2bd8f3	-0.041954946
4	0xbc2470ce	-0.01003666
5	0xbd1235c9	-0.035695825
6	0x3d2f6484	0.04282047
7	0x3da860d4	0.082215935
8	0x3d09cdff	0.03364372
9	0xbdd083aa	-0.10181363
10	0xbb86a648	-0.0041091777
11	0x3d567674	0.05235906
12	0x3e096f16	0.13421282
13	0x3df47657	0.11936634
14	0x3ce96e48	0.028494969
15	0xbba1c057	-0.004936259
16	0x3d22d147	0.039750364
17	0xbdc5f74b	-0.09666308
18	0xbd8e144e	-0.069374666
19	0x3d9daf03	0.076993965
20	0xbd095220	-0.033525586
21	0x3dbe459b	0.0929062
22	0xbc87cb98	-0.016576573
23	0xbe00f19f	-0.12592171
24	0x3d9f965c	0.07792351
25	0xbd985736	-0.07438509
26	0xbdd1d22a	-0.10245164
27	0x3d4c8d7e	0.049939625
28	0x3c0069af	0.007837697
29	0x3e199b31	0.15000607
30	0x3c9b7e16	0.01898102
31	0x3e03e768	0.12881243
32	0x3d5e5f37	0.054290023
33	0x3db6bc1e	0.08922599
34	0x3d2097f5	0.039207418
35	0xbd0fb10b	-0.03508095
36	0xbc2642d3	-0.010147768
37	0xbd607876	-0.05480238
38	0xbc79bf0f	-0.015243306
39	0x3a97d1e0	0.0011582933
40	0x3d6f3b88	0.058406383
41	0x3d0ccca0	0.034374833
42	0xbd6ea481	-0.058262352
43	0xbdf6f9cd	-0.120593645
44	0x3d30a6ff	0.04312801
45	0x3dd6f13b	0.1049523
46	0xbe7213cd	-0.23640366
47	0x3ac6b35c	0.0015159654
48	0xbbb0d514	-0.0053964946
49	0xbc58f735	-0.0132425325
50	0x3e9a5b75	0.301479
51	0x3cfb6a3c	0.030690305
52	0x3d555f10	0.05209261
53	0x3d783512	0.060597487
54	0x3e2cfdae	0.16893646
55	0xbd336769	-0.04379979
56	0xbd860b35	-0.06545106
57	0x3d29844a	0.041385926
58	0x3c5ace53	0.013354856
59	0xbc764fed	-0.015033704
60	0xbd20445c	-0.039127693
61	0x3da98356	0.082770035
62	0x3d801d66	0.06255607
63	0x3d9b78a9	0.075913735
64	0xbdc719cd	-0.09721718
65	0xbcb68a92	-0.022282872
66	0x3dd653c5	0.104651965
67	0xbdad7f25	-0.084715165
68	0xbd2221c3	-0.03958298
69	0xbd6dda5c	-0.05806957
70	0x3db5bb8e	0.08873664
71	0x3e28d3e4	0.1648708
72	0x3bb4e276	0.0055201603
73	0x3ce80481	0.02832246
74	0xbd7e8ef5	-0.062148053
75	0xbd5076bb	-0.05089448
76	0x3dbc8cae	0.0920652
77	0x3c46b488	0.012128003
78	0x3b85dfc3	0.0040855124
79	0xbd1d4e59	-0.038404796
80	0xbdf9c912	-0.12196554
81	0xbd87dece	-0.066342935
82	0xbd411902	-0.04714299
83	0xbd158799	-0.03650627
84	0xbd68acfe	-0.056805603
85	0xbdd953e7	-0.10611706
86	0x3db3c360	0.08777499
87	0x3e31a770	0.17349029
88	0xbe7e2991	-0.24820544
89	0xbdbe0df5	-0.09280006
90	0xbc96a4db	-0.018389156
91	0x3e8d4e8a	0.27598983
92	0xbd1834c1	-0.037159685
93	0xbdd30514	-0.10303703
94	0x3b9e2ad4	0.004826883
95	0xbc863589	-0.01638295
96	0xbc4fee2f	-0.012691065
97	0xbc134d7e	-0.008990644
98	0xba955176	-0.0011392075
99	0xbd764da8	-0.060132653
100	0xbe306133	-0.17224579
101	0x3d9b493c	0.07582328
102	0x3c152932	0.00910406
103	0xbc56bb6e	-0.01310621
104	0x3cfa6fa6	0.030570816
105	0x3c38d80c	0.011281978
106	0xbde4e24e	-0.11175977
107	0x3dc8c08d	0.09802351
108	0x3efc5146	0.49280757
109	0xbdb84260	-0.08997035
110	0xbc9b0aba	-0.018926013
111	0xbc3d37f9	-0.011548989
112	0x3e41f65c	0.18941635
113	0x3dbd00a4	0.09228638
114	0xbda70caa	-0.08156712
115	0x3e279daa	0.16368738
116	0x3b8b67ea	0.004254331
117	0x3ddd1d73	0.107966326
118	0xbda1b640	-0.078960896
119	0xbd803808	-0.06260687
120	0xbda49a9c	-0.08037302
121	0x3c181f8e	0.009284867
122	0x3d855a08	0.06511313
123	0x3cc1c1a3	0.023651903
124	0xbc9026e5	-0.017596671
125	0x3d1e360b	0.03862576
126	0x3bac5e2a	0.0052602487
127	0xbd990747	-0.07472091
128	0xbd9e3d11	-0.07726491
129	0x3d5e6994	0.054299906
130	0xbcf9f0ba	-0.030510295
131	0xbd8453be	-0.06461285
132	0xbd9403d0	-0.0722729
133	0xbd2c89b0	-0.042123497
134	0xbdbbec14	-0.09175888
135	0xbde21d05	-0.11040691
136	0x3d684682	0.056707866
137	0xbda2b29d	-0.07944224
138	0x3d45f609	0.04833034
139	0xbddf81cd	-0.109134294
140	0x3c8352a6	0.01603062
141	0x3d1c6faf	0.038192447
142	0xbdb00d73	-0.08596315
143	0x3da9c315	0.08289162
144	0xbb4f7ab5	-0.0031658832
145	0xbcd357d9	-0.025798725
146	0xbc9f3fc2	-0.019439582
147	0xbcd206ea	-0.025638063
148	0xbd88f151	-0.066866525
149	0x3d57316a	0.05253736
150	0xbd567f35	-0.052367408
151	0xbc727784	-0.014799003
152	0x3ddcb383	0.10776427
153	0x3d38d43d	0.04512428
154	0xbd5d0ea9	-0.05396906
155	0xbdd6d13c	-0.10489127
156	0xbd844fe0	-0.064605474
157	0xbdfdebc7	-0.123984866
158	0x3e137b00	0.1440239
159	0x3c863642	0.016383294
160	0x3d6b690a	0.05747322
161	0x3e0e7e27	0.13915311
162	0x3d94e615	0.07270447
163	0x3daecb22	0.08534838
164	0x3d013f92	0.031554766
165	0xbd2a7e1f	-0.041624185
166	0xbd4072c8	-0.046984464
167	0xbd9579de	-0.07298635
168	0x3d16765e	0.036733977
169	0xbdb3a53e	-0.08771752
170	0xbd80e39d	-0.06293414
171	0xbc9d998a	-0.019238252
172	0x3e0b5c08	0.13609326
173	0x3d431814	0.047630385
174	0x3dd0fded	0.102046825
175	0xbda7c443	-0.08191731
176	0xbe4ae2da	-0.198131
177	0xbdb4755b	-0.08811446
178	0x3def0308	0.116705
179	0xbd86c8f9	-0.06581301
180	0xbd83845a	-0.064217284
181	0x3e0bd055	0.13653691
182	0x3bc8d88d	0.0061293305
183	0xbdacb81c	-0.084335536
184	0x3ced454d	0.02896371
185	0x3d0ef9f7	0.034906354
186	0x3d8db3e6	0.069190785
187	0xbd000475	-0.03125425
188	0xb9fd1652	-0.0004827255
189	0xbca2d59c	-0.019877248
190	0x3c1cde1c	0.009574439
191	0x3d2a5ea6	0.04159417
192	0xbdb7a77a	-0.089674905
193	0x3c6a0bea	0.014285067
194	0x3d098667	0.03357544
195	0x3bbc73af	0.0057510952
196	0xbdcd4724	-0.100233346
197	0x3d8bd3b7	0.06827491
198	0xbd9c961e	-0.0764582
199	0xbda90a83	-0.08253958
200	0x3d83503c	0.06411788
201	0xbddb51b4	-0.10708943
202	0xbdfafd1b	-0.12255307
203	0x3d438773	0.047736596
204	0xbdce2898	-0.100663364
205	0xbd7a993d	-0.061181296
206	0xbd9214b8	-0.07132858
207	0x3c853e10	0.016264945
208	0xbce5aa2a	-0.028035242
209	0xbda9a072	-0.08282556
210	0xbd8140d7	-0.06311195
211	0x3bd68407	0.0065465006
212	0xbd96f7c3	-0.073714755
213	0xbe043ec8	-0.12914574
214	0x3e4edcc5	0.20201404
215	0x3c18aabb	0.009318049
216	0xbd30faaf	-0.04320782
217	0xbdde51e1	-0.10855461
218	0x3e526ea0	0.20550013
219	0x3d3a0e0c	0.045423552
220	0x3ca7c0fd	0.020477766
221	0x3d1b9d7d	0.03799199
222	0xbc47bf7c	-0.0121916495
223	0x3d346cdf	0.04404914
224	0x3e12b067	0.14325105
225	0x3d0e957a	0.03481052
226	0x3c397767	0.011319972
227	0xbd9f45e7	-0.07777005
228	0x3cd82aed	0.026387656
229	0x3ce3c9ea	0.027806241
230	0xbdabd56b	-0.083903156
231	0xbdd42477	-0.103585176
232	0x3c4bfcbd	0.012450394
233	0xbc92bb4c	-0.017911576
234	0xbd4f09e9	-0.05054656
235	0xbc574d0b	-0.013140927
236	0xbd257193	-0.040391516
237	0xbe02ad32	-0.12761381
238	0x3e060e00	0.13091278
239	0xbd0bcf85	-0.034133453
240	0xbd86e350	-0.06586325
241	0xbe172133	-0.14758758
242	0x3e1b7330	0.1518066
243	0xbe37379e	-0.1789231
244	0x3e3a33a3	0.1818376
245	0x3d7822e5	0.060580153
246	0xbe76f16e	-0.24115536
247	0x3e25bde8	0.16185725
248	0x3da0a5d2	0.07844128
249	0xbd347af0	-0.044062555
250	0xba5025eb	-0.00079402205
251	0x3dd4514f	0.10367071
252	0x3dd5e372	0.104437724
253	0x3dce456b	0.10071834
254	0x3d8c0e77	0.068386964
255	0x3b4f9660	0.0031675324

layer1.bias f4 [128]
0	0xbd2e50e7	-0.042557623
1	0x3d1c224a	0.038118638
2	0xbce63c2e	-0.028104868
3	0x3d0b7cd2	0.034054585
4	0x3de2b359	0.11069364
5	0x3d9e0eeb	0.07717689
6	0x3b93b1bb	0.004507271
7	0x3d702600	0.05862999
8	0x3d13a22e	0.03604334
9	0xbca3d744	-0.020000108
10	0xbdc04d30	-0.09389722
11	0xbabcf0f0	-0.0014415067
12	0x3e23ff7f	0.16015433
13	0x3dc845d3	0.09778943
14	0xbda11487	-0.078652434
15	0x3e230682	0.15920451
16	0x3d513a1b	0.051080804
17	0x3d45b081	0.04826403
18	0xbc9c82e6	-0.019105386
19	0xbda4973b	-0.080366574
20	0xbdc83ce5	-0.0977724
21	0xbd68d527	-0.056843903
22	0x3e0838ae	0.13302872
23	0x3d8b80b9	0.06811661
24	0xbcfdbb8f	-0.030973224
25	0x3d4c9ee4	0.049956217
26	0x3da60853	0.081070565
27	0xbcd47832	-0.02593622
28	0x3dfe3135	0.12411729
29	0x3d1b5993	0.03792722
30	0x3e1622a4	0.14661652
31	0x3dabf19e	0.08395694
32	0x3c06233b	0.008187111
33	0x3ce1b9f7	0.027554495
34	0xbd9cfdf2	-0.07665624
35	0xbdcb353d	-0.09922264
36	0x3ca24ee4	0.019813009
37	0x3d9e8e35	0.077419676
38	0x3d95db53	0.073172234
39	0x3c4904de	0.012269227
40	0x3d9995ff	0.074993126
41	0x3db0c980	0.08632183
42	0x3c072b18	0.00825002
43	0x3d50d164	0.05098094
44	0xbda3f2a9	-0.08005268
45	0x3dcb35e6	0.0992239
46	0x3cc03922	0.023464743
47	0x3da6c8a0	0.08143735
48	0xbc7bcc6f	-0.015368565
49	0xbca5acaf	-0.020223944
50	0x3d850d74	0.064967066
51	0x3d88a3a3	0.06671836
52	0x3d617bdc	0.055049762
53	0x3cf5ef79	0.030021416
54	0xbd5a83c4	-0.053348318
55	0xbd63eb2d	-0.055644203
56	0xbd0aed75	-0.033917863
57	0xbcfceeca	-0.030875582
58	0xbcadb373	-0.021203732
59	0x3da73c2b	0.08165773
60	0x3cf006b7	0.029300077
61	0x3dbe3170	0.09286773
62	0x3e097539	0.13423623
63	0x3d702510	0.058629096
64	0xbd390102	-0.045166977
65	0xbdcce557	-0.100046806
66	0x3df12263	0.11774137
67	0x3d823df9	0.063594766
68	0x3db12dc5	0.08651308
69	0x3db7efb8	0.089812696
70	0x3cdc6847	0.026905192
71	0x3d9a1788	0.075240195
72	0xbd505482	-0.050861843
73	0x3d66e487	0.056370284
74	0xbb2d9fe5	-0.002649301
75	0x3bf60152	0.0075074816
76	0x3d9103a9	0.07080776
77	0x3c156088	0.009117253
78	0x3dfe0ecc	0.12405166
79	0x3d1d4b49	0.038401876
80	0xbd414231	-0.047182266
81	0x3c17d4bc	0.009267028
82	0xbbc6241f	-0.0060467864
83	0xbd8bc987	-0.06825548
84	0x3ca7ef28	0.02049978
85	0x3d6f5b81	0.058436874
86	0xbc190f83	-0.009342077
87	0x3cde9e6c	0.02717515
88	0x3d9fc598	0.0780136
89	0xbc824080	-0.015899897
90	0x3c572850	0.01313217
91	0x3dab9aa1	0.083791025
92	0x3d934ad7	0.07192009
93	0xbd94b794	-0.07261577
94	0xbd25f768	-0.040519148
95	0x3dd07448	0.10178429
96	0xbd03cf6c	-0.032180235
97	0x3e1f10cc	0.15533751
98	0x3d375a1a	0.044763662
99	0x3b652b5a	0.0034968466
100	0x3d19be0f	0.03753477
101	0xbd524a86	-0.051340602
102	0x3cb3468e	0.021884229
103	0x3d2b3e96	0.041807733
104	0x3d5aea69	0.053446207
105	0xbbdb6637	-0.0066955346
106	0x3e1c5f28	0.15270674
107	0xbd0d0374	-0.03442712
108	0xbbd9b864	-0.0066442955
109	0x3d506a13	0.05088241
110	0x3d858997	0.06520384
111	0xbd3458ca	-0.04402999
112	0x3cd84931	0.026402088
113	0x3db07005	0.08615116
114	0xbbe9965f	-0.0071285213
115	0x3c2521bc	0.010078844
116	0xbda13339	-0.07871098
117	0xbd2765c7	-0.040868547
118	0xbd789277	-0.060686555
119	0x3da26eaf	0.079312675
120	0xbc96c014	-0.018402137
121	0x3c117175	0.008877148
122	0xbd2ade13	-0.041715693
123	0x3de36271	0.111027606
124	0x3d02031b	0.031741243
125	0x3d2ae683	0.04172374
126	0x3d037916	0.0320979
127	0x3df074e9	0.11741049

layer2.weight f4 [7, 128]
0	0x3cf4158e	0.029795434
1	0xbe9ec6c7	-0.3101103
2	0xbe1cd5bf	-0.15315913
3	0xbdbb36c9	-0.09141309
4	0xbdb884c7	-0.090097
5	0xbc2dbcf2	-0.01060413
6	0xbdffe896	-0.12495534
7	0xbe03bf46	-0.12865934
8	0xbe6ba902	-0.2301369
9	0xbdedbc58	-0.11608189
10	0xbcaf3365	-0.021386812
11	0x3d7d1b5b	0.061793666
12	0xbe0573c0	-0.13032436
13	0xbdeddf2d	-0.11614833
14	0xbd997395	-0.07492749
15	0xbe0831e9	-0.13300289
16	0xbc95d8a6	-0.018291783
17	0xbdc8f054	-0.09811464
18	0xbe29336e	-0.16523525
19	0xbeadd73f	-0.33953282
20	0xbd86641e	-0.065620646
21	0xbd5a4881	-0.0532918
22	0xbe1904f4	-0.14943296
23	0xbd344665	-0.044012446
24	0xbd559c33	-0.052150916
25	0xbe3b317a	-0.18280593
26	0xbe0f0e2c	-0.1397025
27	0xbd9b312b	-0.075777374
28	0xbd99559a	-0.0748703
29	0x3b164a3f	0.0022932438
30	0xbd8cee1c	-0.06881353
31	0xbe2c4513	-0.16823225
32	0xbe9d2ec1	-0.30699733
33	0xbcd3e3eb	-0.025865516
34	0xbd9f5cec	-0.07781395
35	0xbd7cb18b	-0.061692756
36	0xbe8c4111	-0.27393392
37	0xbd80037e	-0.06250666
38	0xbddde512	-0.10834707
39	0x3d7a1a22	0.06106008
40	0xbe02a8d2	-0.12759712
41	0x3ca71d98	0.020399854
42	0x3cc58c8f	0.024114875
43	0xbe4e1212	-0.20124081
44	0x3c29cacc	0.010363292
45	0xbe82e7ef	-0.25567576
46	0xbc9e563e	-0.019328233
47	0xbd8625a9	-0.06550152
48	0xbd16ec4a	-0.036846437
49	0xbd2e008e	-0.042480998
50	0xbe172f0b	-0.14764039
51	0xbd8c70e1	-0.068574674
52	0xbda88aaf	-0.08229577
53	0xbdb22e17	-0.08700197
54	0xbe2a2971	-0.16617371
55	0xbe8815e4	-0.265792
56	0xbe9dc5c6	-0.30814952
57	0xbdb5ca1d	-0.08876441
58	0xbdf875ec	-0.12131867
59	0xbc574a5a	-0.013140285
60	0xbd5cf372	-0.053943105
61	0xbe384dfd	-0.179985
62	0xbd855894	-0.065110356
63	0xbe84ff8e	-0.25976223
64	0xbe8d1d19	-0.27561262
65	0x3d9247ae	0.07142578
66	0xbd25f24d	-0.04051428
67	0xbe2e1a37	-0.17002188
68	0xbbd4662e	-0.0064819073
69	0xbd305e96	-0.043058954
70	0xbdd318ba	-0.103074506
71	0x3c2c1b66	0.010504579
72	0xbd52611c	-0.051362142
73	0x3c4dc253	0.012558538
74	0xbdfac3e5	-0.12244395
75	0xbd81a3ce	-0.063300714
76	0xbe27fba4	-0.16404587
77	0x3d71851c	0.058964834
78	0xbda491c6	-0.080356166
79	0x3d86c528	0.06580573
80	0xbdaa0f81	-0.083037384
81	0xbe264c0e	-0.1623995
82	0xbdb1776e	-0.086653575
83	0xbe0ba6f4	-0.13637906
84	0xbe2c7966	-0.16843185
85	0xbd9941a5	-0.07483224
86	0xbe3e268c	-0.18569392
87	0xbd130af1	-0.035899106
88	0xbdb9986b	-0.090622745
89	0xbe16e14c	-0.14734381
90	0xbd9cf5ca	-0.07664068
91	0xbdd1e07c	-0.10247895
92	0xbcd893f2	-0.026437733
93	0xbdca35e9	-0.09873564
94	0xbdd17a0c	-0.10228357
95	0x3bfd2547	0.007725391
96	0x3d78e3cb	0.060764115
97	0xbdebf505	-0.11521343
98	0x3b2d0003	0.0026397712
99	0xbdc6d212	-0.097080365
100	0xbe0a6305	-0.13514335
101	0xbe4ae64b	-0.19814412
102	0xbdf1ef57	-0.118132286
103	0xbe3edd0c	-0.1863901
104	0xbeb375bc	-0.35050762
105	0xbd6d1134	-0.057877734
106	0xbe30d215	-0.1726764
107	0xbd2886f4	-0.041144326
108	0xbdfd42c6	-0.12366252
109	0xbe209273	-0.15680866
110	0xba9077b4	-0.0011022002
111	0x3d40802d	0.046997238
112	0xbd780590	-0.06055218
113	0xbd072655	-0.03299554
114	0xbdaf987e	-0.085740075
115	0xbe1dafd9	-0.15399112
116	0xbde93eb5	-0.113889135
117	0xbe94fc18	-0.29098582
118	0xbe04474e	-0.12917826
119	0xbd3e0c93	-0.04639871
120	0xbe4d9e2a	-0.20079866
121	0x3de8de12	0.113704816
122	0x3d065ae0	0.03280151
123	0xbce2a588	-0.027666822
124	0xbdc71713	-0.09721198
125	0xbd9eb4d5	-0.07749335
126	0xbc8c2dd3	-0.017111694
127	0xbdf71947	-0.12065368
128	0x3e898a71	0.26863435
129	0xbcb1d8ed	-0.021709884
130	0xbddce08d	-0.10785017
131	0x3b858124	0.0040742327
132	0x3b3610c3	0.0027780987
133	0x3c55cb46	0.013048952
134	0xbe69ad16	-0.22819933
135	0x3e2564cc	0.16151732
136	0xbda508e6	-0.08058338
137	0x3d0269cc	0.031839177
138	0xbda7fea6	-0.08202867
139	0xbd8aed3c	-0.0678353
140	0xbe18a8a4	-0.14908081
141	0xbc834c3a	-0.016027559
142	0x3e8073b5	0.25088277
143	0xbe4b11a2	-0.19830945
144	0xbd5a36f0	-0.05327505
145	0xbe01e883	-0.12686352
146	0x3d98f6d1	0.074689515
147	0x3dd64699	0.10462684
148	0x3dadfd01	0.08495522
149	0x3e8d9f0a	0.276604
150	0xbccc292f	-0.024921982
151	0x3d5e6e97	0.054304685
152	0xbe12e7aa	-0.14346185
153	0xbcbd19d4	-0.023083605
154	0xbde18ed4	-0.110135704
155	0x3d9a48c3	0.075334094
156	0xbe527333	-0.20551758
157	0xbe49198e	-0.19638655
158	0xbe5a1bdd	-0.21299691
159	0x3c67e87f	0.0141545525
160	0xbe33819b	-0.1752991
161	0x3d84405c	0.06457588
162	0x3c2c469f	0.010514884
163	0xbbc3c506	-0.0059744148
164	0xbe78c8f4	-0.24295408
165	0xbe4a9b73	-0.19785862
166	0xbe2351b3	-0.15949135
167	0xbe4dbc08	-0.2009126
168	0xbe905f76	-0.2819783
169	0x3e0c3eeb	0.13695876
170	0xbe4ca01f	-0.19982956
171	0x3e5a46ae	0.21316025
172	0x3d944fa3	0.07241752
173	0xbe178ffd	-0.14801021
174	0xbe7aaa7b	-0.24479096
175	0xbbd06609	-0.00635982
176	0x3e0ed516	0.13948473
177	0x3d9e2776	0.0772237
178	0x3d9e28f5	0.07722656
179	0xbda58e28	-0.08083755
180	0x3e0fdd66	0.140493
181	0xbe04f8a9	-0.12985481
182	0xbdd6d5e3	-0.104900144
183	0x3e51aaf3	0.20475368
184	0x3d61e9b3	0.055154514
185	0x3e14e6d4	0.14541179
186	0x3cf5de56	0.030013245
187	0x3d729cc9	0.059231553
188	0x3df8580b	0.12126168
189	0x3c35d6ed	0.011098606
190	0xbcea5410	-0.028604537
191	0x3e84f208	0.25965905
192	0x3db06714	0.086134106
193	0xbd0864e1	-0.03329933
194	0xbe51ad61	-0.20476295
195	0xbe5be8af	-0.2147548
196	0xbded40e0	-0.115846395
197	0x3df95393	0.12174144
198	0xbe2cc494	-0.16871864
199	0xbe4ea510	-0.20180154
200	0xbe972193	-0.29517803
201	0xbeae5bb9	-0.34054354
202	0xbe126557	-0.1429647
203	0xbe3821ae	-0.17981598
204	0x3dc17408	0.09445959
205	0x3d381a95	0.044947226
206	0xbc2b341c	-0.010449436
207	0x3c14eea9	0.009090104
208	0x3d931009	0.07180793
209	0xbd4a7dc2	-0.04943634
210	0x3e7e0db5	0.24809916
211	0x3e30a183	0.17249112
212	0x3e08b15e	0.1334891
213	0xbb0072a9	-0.0019599593
214	0xbc40b2ea	-0.011761406
215	0x3db8130a	0.089880064
216	0xbe820341	-0.25393108
217	0x3e371608	0.17879498
218	0xbb2e0e95	-0.0026558985
219	0xbe817bf7	-0.2528989
220	0x3d51f79b	0.051261526
221	0xbe2e787f	-0.17038153
222	0x3e3babc2	0.18327239
223	0x3e6b8553	0.23000078
224	0x3db79bc6	0.08965258
225	0xbe0652fa	-0.1311759
226	0xbea52cb1	-0.3226066
227	0x3db918fc	0.090379685
228	0x3e8dcdc9	0.27696064
229	0x3d7f950f	0.062398013
230	0xbdcec7f5	-0.100967325
231	0x3dae6425	0.08515195
232	0x3e935ac2	0.2878018
233	0x3dcab8ba	0.09898515
234	0xbe265bc4	-0.16245943
235	0x3de3aae0	0.11116576
236	0xbe71d1c6	-0.23615178
237	0xbdd16b12	-0.102255
238	0xbe8c2519	-0.27372053
239	0xbe3d7ee5	-0.18505438
240	0x3dec687a	0.11543365
241	0x3e0e8493	0.1391776
242	0x3d1365d1	0.03598577
243	0x3c7b0ea0	0.015323311
244	0x3d261816	0.040550314
245	0xbd78fd06	-0.060788177
246	0x3da4f395	0.08054272
247	0x3e23cc6b	0.15995948
248	0x3d3b7579	0.045766328
249	0xbd58eab1	-0.052958194
250	0x3d4a2510	0.04935175
251	0xbd679c53	-0.056545567
252	0xbe09b9a3	-0.13449721
253	0x3e8f7f29	0.28026703
254	0x3d3c632d	0.04599302
255	0xbe4ca6a1	-0.19985439

layer2.bias f4 [7]
0	0xbd4a3197	-0.0493637
1	0x3d3cf3c5	0.046130914
2	0xbd6e66ce	-0.05820351
3	0x3d3f79cb	0.04674701
4	0x3d251264	0.04030074
5	0xbd87f5dd	-0.066386916
6	0xbda5a91f	-0.08088898
